{
  "nodes": [
    {
      "op": "null", 
      "name": "data/0", 
      "inputs": []
    }, 
    {
      "op": "null", 
      "name": "embed_weight", 
      "inputs": []
    }, 
    {
      "op": "Embedding", 
      "name": "t0_embed", 
      "attr": {
        "input_dim": "4443", 
        "output_dim": "256"
      }, 
      "inputs": [[0, 0, 0], [1, 0, 0]]
    }, 
    {
      "op": "null", 
      "name": "l0_i2h_weight", 
      "inputs": []
    }, 
    {
      "op": "null", 
      "name": "l0_i2h_bias", 
      "inputs": []
    }, 
    {
      "op": "FullyConnected", 
      "name": "t0_l0_i2h", 
      "attr": {"num_hidden": "2048"}, 
      "inputs": [[2, 0, 0], [3, 0, 0], [4, 0, 0]]
    }, 
    {
      "op": "null", 
      "name": "l0_init_h", 
      "inputs": []
    }, 
    {
      "op": "null", 
      "name": "l0_h2h_weight", 
      "inputs": []
    }, 
    {
      "op": "null", 
      "name": "l0_h2h_bias", 
      "inputs": []
    }, 
    {
      "op": "FullyConnected", 
      "name": "t0_l0_h2h", 
      "attr": {"num_hidden": "2048"}, 
      "inputs": [[6, 0, 0], [7, 0, 0], [8, 0, 0]]
    }, 
    {
      "op": "elemwise_add", 
      "name": "_plus3348", 
      "inputs": [[5, 0, 0], [9, 0, 0]]
    }, 
    {
      "op": "SliceChannel", 
      "name": "t0_l0_slice", 
      "attr": {"num_outputs": "4"}, 
      "inputs": [[10, 0, 0]]
    }, 
    {
      "op": "Activation", 
      "name": "activation8373", 
      "attr": {"act_type": "sigmoid"}, 
      "inputs": [[11, 3, 0]]
    }, 
    {
      "op": "Activation", 
      "name": "activation8372", 
      "attr": {"act_type": "sigmoid"}, 
      "inputs": [[11, 2, 0]]
    }, 
    {
      "op": "null", 
      "name": "l0_init_c", 
      "inputs": []
    }, 
    {
      "op": "_mul", 
      "name": "_mul5022", 
      "inputs": [[13, 0, 0], [14, 0, 0]]
    }, 
    {
      "op": "Activation", 
      "name": "activation8370", 
      "attr": {"act_type": "sigmoid"}, 
      "inputs": [[11, 0, 0]]
    }, 
    {
      "op": "Activation", 
      "name": "activation8371", 
      "attr": {"act_type": "tanh"}, 
      "inputs": [[11, 1, 0]]
    }, 
    {
      "op": "_mul", 
      "name": "_mul5023", 
      "inputs": [[16, 0, 0], [17, 0, 0]]
    }, 
    {
      "op": "elemwise_add", 
      "name": "_plus3349", 
      "inputs": [[15, 0, 0], [18, 0, 0]]
    }, 
    {
      "op": "Activation", 
      "name": "activation8374", 
      "attr": {"act_type": "tanh"}, 
      "inputs": [[19, 0, 0]]
    }, 
    {
      "op": "_mul", 
      "name": "_mul5024", 
      "inputs": [[12, 0, 0], [20, 0, 0]]
    }, 
    {
      "op": "Dropout", 
      "name": "dropout1674", 
      "attr": {"p": "0.2"}, 
      "inputs": [[21, 0, 0]]
    }, 
    {
      "op": "null", 
      "name": "l1_i2h_weight", 
      "inputs": []
    }, 
    {
      "op": "null", 
      "name": "l1_i2h_bias", 
      "inputs": []
    }, 
    {
      "op": "FullyConnected", 
      "name": "t0_l1_i2h", 
      "attr": {"num_hidden": "2048"}, 
      "inputs": [[22, 0, 0], [23, 0, 0], [24, 0, 0]]
    }, 
    {
      "op": "null", 
      "name": "l1_init_h", 
      "inputs": []
    }, 
    {
      "op": "null", 
      "name": "l1_h2h_weight", 
      "inputs": []
    }, 
    {
      "op": "null", 
      "name": "l1_h2h_bias", 
      "inputs": []
    }, 
    {
      "op": "FullyConnected", 
      "name": "t0_l1_h2h", 
      "attr": {"num_hidden": "2048"}, 
      "inputs": [[26, 0, 0], [27, 0, 0], [28, 0, 0]]
    }, 
    {
      "op": "elemwise_add", 
      "name": "_plus3350", 
      "inputs": [[25, 0, 0], [29, 0, 0]]
    }, 
    {
      "op": "SliceChannel", 
      "name": "t0_l1_slice", 
      "attr": {"num_outputs": "4"}, 
      "inputs": [[30, 0, 0]]
    }, 
    {
      "op": "Activation", 
      "name": "activation8378", 
      "attr": {"act_type": "sigmoid"}, 
      "inputs": [[31, 3, 0]]
    }, 
    {
      "op": "Activation", 
      "name": "activation8377", 
      "attr": {"act_type": "sigmoid"}, 
      "inputs": [[31, 2, 0]]
    }, 
    {
      "op": "null", 
      "name": "l1_init_c", 
      "inputs": []
    }, 
    {
      "op": "_mul", 
      "name": "_mul5025", 
      "inputs": [[33, 0, 0], [34, 0, 0]]
    }, 
    {
      "op": "Activation", 
      "name": "activation8375", 
      "attr": {"act_type": "sigmoid"}, 
      "inputs": [[31, 0, 0]]
    }, 
    {
      "op": "Activation", 
      "name": "activation8376", 
      "attr": {"act_type": "tanh"}, 
      "inputs": [[31, 1, 0]]
    }, 
    {
      "op": "_mul", 
      "name": "_mul5026", 
      "inputs": [[36, 0, 0], [37, 0, 0]]
    }, 
    {
      "op": "elemwise_add", 
      "name": "_plus3351", 
      "inputs": [[35, 0, 0], [38, 0, 0]]
    }, 
    {
      "op": "Activation", 
      "name": "activation8379", 
      "attr": {"act_type": "tanh"}, 
      "inputs": [[39, 0, 0]]
    }, 
    {
      "op": "_mul", 
      "name": "_mul5027", 
      "inputs": [[32, 0, 0], [40, 0, 0]]
    }, 
    {
      "op": "Dropout", 
      "name": "dropout1675", 
      "attr": {"p": "0.2"}, 
      "inputs": [[41, 0, 0]]
    }, 
    {
      "op": "null", 
      "name": "l2_i2h_weight", 
      "inputs": []
    }, 
    {
      "op": "null", 
      "name": "l2_i2h_bias", 
      "inputs": []
    }, 
    {
      "op": "FullyConnected", 
      "name": "t0_l2_i2h", 
      "attr": {"num_hidden": "2048"}, 
      "inputs": [[42, 0, 0], [43, 0, 0], [44, 0, 0]]
    }, 
    {
      "op": "null", 
      "name": "l2_init_h", 
      "inputs": []
    }, 
    {
      "op": "null", 
      "name": "l2_h2h_weight", 
      "inputs": []
    }, 
    {
      "op": "null", 
      "name": "l2_h2h_bias", 
      "inputs": []
    }, 
    {
      "op": "FullyConnected", 
      "name": "t0_l2_h2h", 
      "attr": {"num_hidden": "2048"}, 
      "inputs": [[46, 0, 0], [47, 0, 0], [48, 0, 0]]
    }, 
    {
      "op": "elemwise_add", 
      "name": "_plus3352", 
      "inputs": [[45, 0, 0], [49, 0, 0]]
    }, 
    {
      "op": "SliceChannel", 
      "name": "t0_l2_slice", 
      "attr": {"num_outputs": "4"}, 
      "inputs": [[50, 0, 0]]
    }, 
    {
      "op": "Activation", 
      "name": "activation8383", 
      "attr": {"act_type": "sigmoid"}, 
      "inputs": [[51, 3, 0]]
    }, 
    {
      "op": "Activation", 
      "name": "activation8382", 
      "attr": {"act_type": "sigmoid"}, 
      "inputs": [[51, 2, 0]]
    }, 
    {
      "op": "null", 
      "name": "l2_init_c", 
      "inputs": []
    }, 
    {
      "op": "_mul", 
      "name": "_mul5028", 
      "inputs": [[53, 0, 0], [54, 0, 0]]
    }, 
    {
      "op": "Activation", 
      "name": "activation8380", 
      "attr": {"act_type": "sigmoid"}, 
      "inputs": [[51, 0, 0]]
    }, 
    {
      "op": "Activation", 
      "name": "activation8381", 
      "attr": {"act_type": "tanh"}, 
      "inputs": [[51, 1, 0]]
    }, 
    {
      "op": "_mul", 
      "name": "_mul5029", 
      "inputs": [[56, 0, 0], [57, 0, 0]]
    }, 
    {
      "op": "elemwise_add", 
      "name": "_plus3353", 
      "inputs": [[55, 0, 0], [58, 0, 0]]
    }, 
    {
      "op": "Activation", 
      "name": "activation8384", 
      "attr": {"act_type": "tanh"}, 
      "inputs": [[59, 0, 0]]
    }, 
    {
      "op": "_mul", 
      "name": "_mul5030", 
      "inputs": [[52, 0, 0], [60, 0, 0]]
    }, 
    {
      "op": "Dropout", 
      "name": "dropout1676", 
      "attr": {"p": "0.2"}, 
      "inputs": [[61, 0, 0]]
    }, 
    {
      "op": "null", 
      "name": "cls_weight", 
      "inputs": []
    }, 
    {
      "op": "null", 
      "name": "cls_bias", 
      "inputs": []
    }, 
    {
      "op": "FullyConnected", 
      "name": "fullyconnected558", 
      "attr": {"num_hidden": "4443"}, 
      "inputs": [[62, 0, 0], [63, 0, 0], [64, 0, 0]]
    }, 
    {
      "op": "null", 
      "name": "label/0", 
      "inputs": []
    }, 
    {
      "op": "SoftmaxOutput", 
      "name": "t0_sm", 
      "inputs": [[65, 0, 0], [66, 0, 0]]
    }, 
    {
      "op": "null", 
      "name": "data/1", 
      "inputs": []
    }, 
    {
      "op": "Embedding", 
      "name": "t1_embed", 
      "attr": {
        "input_dim": "4443", 
        "output_dim": "256"
      }, 
      "inputs": [[68, 0, 0], [1, 0, 0]]
    }, 
    {
      "op": "FullyConnected", 
      "name": "t1_l0_i2h", 
      "attr": {"num_hidden": "2048"}, 
      "inputs": [[69, 0, 0], [3, 0, 0], [4, 0, 0]]
    }, 
    {
      "op": "FullyConnected", 
      "name": "t1_l0_h2h", 
      "attr": {"num_hidden": "2048"}, 
      "inputs": [[21, 0, 0], [7, 0, 0], [8, 0, 0]]
    }, 
    {
      "op": "elemwise_add", 
      "name": "_plus3354", 
      "inputs": [[70, 0, 0], [71, 0, 0]]
    }, 
    {
      "op": "SliceChannel", 
      "name": "t1_l0_slice", 
      "attr": {"num_outputs": "4"}, 
      "inputs": [[72, 0, 0]]
    }, 
    {
      "op": "Activation", 
      "name": "activation8388", 
      "attr": {"act_type": "sigmoid"}, 
      "inputs": [[73, 3, 0]]
    }, 
    {
      "op": "Activation", 
      "name": "activation8387", 
      "attr": {"act_type": "sigmoid"}, 
      "inputs": [[73, 2, 0]]
    }, 
    {
      "op": "_mul", 
      "name": "_mul5031", 
      "inputs": [[75, 0, 0], [19, 0, 0]]
    }, 
    {
      "op": "Activation", 
      "name": "activation8385", 
      "attr": {"act_type": "sigmoid"}, 
      "inputs": [[73, 0, 0]]
    }, 
    {
      "op": "Activation", 
      "name": "activation8386", 
      "attr": {"act_type": "tanh"}, 
      "inputs": [[73, 1, 0]]
    }, 
    {
      "op": "_mul", 
      "name": "_mul5032", 
      "inputs": [[77, 0, 0], [78, 0, 0]]
    }, 
    {
      "op": "elemwise_add", 
      "name": "_plus3355", 
      "inputs": [[76, 0, 0], [79, 0, 0]]
    }, 
    {
      "op": "Activation", 
      "name": "activation8389", 
      "attr": {"act_type": "tanh"}, 
      "inputs": [[80, 0, 0]]
    }, 
    {
      "op": "_mul", 
      "name": "_mul5033", 
      "inputs": [[74, 0, 0], [81, 0, 0]]
    }, 
    {
      "op": "Dropout", 
      "name": "dropout1677", 
      "attr": {"p": "0.2"}, 
      "inputs": [[82, 0, 0]]
    }, 
    {
      "op": "FullyConnected", 
      "name": "t1_l1_i2h", 
      "attr": {"num_hidden": "2048"}, 
      "inputs": [[83, 0, 0], [23, 0, 0], [24, 0, 0]]
    }, 
    {
      "op": "FullyConnected", 
      "name": "t1_l1_h2h", 
      "attr": {"num_hidden": "2048"}, 
      "inputs": [[41, 0, 0], [27, 0, 0], [28, 0, 0]]
    }, 
    {
      "op": "elemwise_add", 
      "name": "_plus3356", 
      "inputs": [[84, 0, 0], [85, 0, 0]]
    }, 
    {
      "op": "SliceChannel", 
      "name": "t1_l1_slice", 
      "attr": {"num_outputs": "4"}, 
      "inputs": [[86, 0, 0]]
    }, 
    {
      "op": "Activation", 
      "name": "activation8393", 
      "attr": {"act_type": "sigmoid"}, 
      "inputs": [[87, 3, 0]]
    }, 
    {
      "op": "Activation", 
      "name": "activation8392", 
      "attr": {"act_type": "sigmoid"}, 
      "inputs": [[87, 2, 0]]
    }, 
    {
      "op": "_mul", 
      "name": "_mul5034", 
      "inputs": [[89, 0, 0], [39, 0, 0]]
    }, 
    {
      "op": "Activation", 
      "name": "activation8390", 
      "attr": {"act_type": "sigmoid"}, 
      "inputs": [[87, 0, 0]]
    }, 
    {
      "op": "Activation", 
      "name": "activation8391", 
      "attr": {"act_type": "tanh"}, 
      "inputs": [[87, 1, 0]]
    }, 
    {
      "op": "_mul", 
      "name": "_mul5035", 
      "inputs": [[91, 0, 0], [92, 0, 0]]
    }, 
    {
      "op": "elemwise_add", 
      "name": "_plus3357", 
      "inputs": [[90, 0, 0], [93, 0, 0]]
    }, 
    {
      "op": "Activation", 
      "name": "activation8394", 
      "attr": {"act_type": "tanh"}, 
      "inputs": [[94, 0, 0]]
    }, 
    {
      "op": "_mul", 
      "name": "_mul5036", 
      "inputs": [[88, 0, 0], [95, 0, 0]]
    }, 
    {
      "op": "Dropout", 
      "name": "dropout1678", 
      "attr": {"p": "0.2"}, 
      "inputs": [[96, 0, 0]]
    }, 
    {
      "op": "FullyConnected", 
      "name": "t1_l2_i2h", 
      "attr": {"num_hidden": "2048"}, 
      "inputs": [[97, 0, 0], [43, 0, 0], [44, 0, 0]]
    }, 
    {
      "op": "FullyConnected", 
      "name": "t1_l2_h2h", 
      "attr": {"num_hidden": "2048"}, 
      "inputs": [[61, 0, 0], [47, 0, 0], [48, 0, 0]]
    }, 
    {
      "op": "elemwise_add", 
      "name": "_plus3358", 
      "inputs": [[98, 0, 0], [99, 0, 0]]
    }, 
    {
      "op": "SliceChannel", 
      "name": "t1_l2_slice", 
      "attr": {"num_outputs": "4"}, 
      "inputs": [[100, 0, 0]]
    }, 
    {
      "op": "Activation", 
      "name": "activation8398", 
      "attr": {"act_type": "sigmoid"}, 
      "inputs": [[101, 3, 0]]
    }, 
    {
      "op": "Activation", 
      "name": "activation8397", 
      "attr": {"act_type": "sigmoid"}, 
      "inputs": [[101, 2, 0]]
    }, 
    {
      "op": "_mul", 
      "name": "_mul5037", 
      "inputs": [[103, 0, 0], [59, 0, 0]]
    }, 
    {
      "op": "Activation", 
      "name": "activation8395", 
      "attr": {"act_type": "sigmoid"}, 
      "inputs": [[101, 0, 0]]
    }, 
    {
      "op": "Activation", 
      "name": "activation8396", 
      "attr": {"act_type": "tanh"}, 
      "inputs": [[101, 1, 0]]
    }, 
    {
      "op": "_mul", 
      "name": "_mul5038", 
      "inputs": [[105, 0, 0], [106, 0, 0]]
    }, 
    {
      "op": "elemwise_add", 
      "name": "_plus3359", 
      "inputs": [[104, 0, 0], [107, 0, 0]]
    }, 
    {
      "op": "Activation", 
      "name": "activation8399", 
      "attr": {"act_type": "tanh"}, 
      "inputs": [[108, 0, 0]]
    }, 
    {
      "op": "_mul", 
      "name": "_mul5039", 
      "inputs": [[102, 0, 0], [109, 0, 0]]
    }, 
    {
      "op": "Dropout", 
      "name": "dropout1679", 
      "attr": {"p": "0.2"}, 
      "inputs": [[110, 0, 0]]
    }, 
    {
      "op": "FullyConnected", 
      "name": "fullyconnected559", 
      "attr": {"num_hidden": "4443"}, 
      "inputs": [[111, 0, 0], [63, 0, 0], [64, 0, 0]]
    }, 
    {
      "op": "null", 
      "name": "label/1", 
      "inputs": []
    }, 
    {
      "op": "SoftmaxOutput", 
      "name": "t1_sm", 
      "inputs": [[112, 0, 0], [113, 0, 0]]
    }, 
    {
      "op": "null", 
      "name": "data/2", 
      "inputs": []
    }, 
    {
      "op": "Embedding", 
      "name": "t2_embed", 
      "attr": {
        "input_dim": "4443", 
        "output_dim": "256"
      }, 
      "inputs": [[115, 0, 0], [1, 0, 0]]
    }, 
    {
      "op": "FullyConnected", 
      "name": "t2_l0_i2h", 
      "attr": {"num_hidden": "2048"}, 
      "inputs": [[116, 0, 0], [3, 0, 0], [4, 0, 0]]
    }, 
    {
      "op": "FullyConnected", 
      "name": "t2_l0_h2h", 
      "attr": {"num_hidden": "2048"}, 
      "inputs": [[82, 0, 0], [7, 0, 0], [8, 0, 0]]
    }, 
    {
      "op": "elemwise_add", 
      "name": "_plus3360", 
      "inputs": [[117, 0, 0], [118, 0, 0]]
    }, 
    {
      "op": "SliceChannel", 
      "name": "t2_l0_slice", 
      "attr": {"num_outputs": "4"}, 
      "inputs": [[119, 0, 0]]
    }, 
    {
      "op": "Activation", 
      "name": "activation8403", 
      "attr": {"act_type": "sigmoid"}, 
      "inputs": [[120, 3, 0]]
    }, 
    {
      "op": "Activation", 
      "name": "activation8402", 
      "attr": {"act_type": "sigmoid"}, 
      "inputs": [[120, 2, 0]]
    }, 
    {
      "op": "_mul", 
      "name": "_mul5040", 
      "inputs": [[122, 0, 0], [80, 0, 0]]
    }, 
    {
      "op": "Activation", 
      "name": "activation8400", 
      "attr": {"act_type": "sigmoid"}, 
      "inputs": [[120, 0, 0]]
    }, 
    {
      "op": "Activation", 
      "name": "activation8401", 
      "attr": {"act_type": "tanh"}, 
      "inputs": [[120, 1, 0]]
    }, 
    {
      "op": "_mul", 
      "name": "_mul5041", 
      "inputs": [[124, 0, 0], [125, 0, 0]]
    }, 
    {
      "op": "elemwise_add", 
      "name": "_plus3361", 
      "inputs": [[123, 0, 0], [126, 0, 0]]
    }, 
    {
      "op": "Activation", 
      "name": "activation8404", 
      "attr": {"act_type": "tanh"}, 
      "inputs": [[127, 0, 0]]
    }, 
    {
      "op": "_mul", 
      "name": "_mul5042", 
      "inputs": [[121, 0, 0], [128, 0, 0]]
    }, 
    {
      "op": "Dropout", 
      "name": "dropout1680", 
      "attr": {"p": "0.2"}, 
      "inputs": [[129, 0, 0]]
    }, 
    {
      "op": "FullyConnected", 
      "name": "t2_l1_i2h", 
      "attr": {"num_hidden": "2048"}, 
      "inputs": [[130, 0, 0], [23, 0, 0], [24, 0, 0]]
    }, 
    {
      "op": "FullyConnected", 
      "name": "t2_l1_h2h", 
      "attr": {"num_hidden": "2048"}, 
      "inputs": [[96, 0, 0], [27, 0, 0], [28, 0, 0]]
    }, 
    {
      "op": "elemwise_add", 
      "name": "_plus3362", 
      "inputs": [[131, 0, 0], [132, 0, 0]]
    }, 
    {
      "op": "SliceChannel", 
      "name": "t2_l1_slice", 
      "attr": {"num_outputs": "4"}, 
      "inputs": [[133, 0, 0]]
    }, 
    {
      "op": "Activation", 
      "name": "activation8408", 
      "attr": {"act_type": "sigmoid"}, 
      "inputs": [[134, 3, 0]]
    }, 
    {
      "op": "Activation", 
      "name": "activation8407", 
      "attr": {"act_type": "sigmoid"}, 
      "inputs": [[134, 2, 0]]
    }, 
    {
      "op": "_mul", 
      "name": "_mul5043", 
      "inputs": [[136, 0, 0], [94, 0, 0]]
    }, 
    {
      "op": "Activation", 
      "name": "activation8405", 
      "attr": {"act_type": "sigmoid"}, 
      "inputs": [[134, 0, 0]]
    }, 
    {
      "op": "Activation", 
      "name": "activation8406", 
      "attr": {"act_type": "tanh"}, 
      "inputs": [[134, 1, 0]]
    }, 
    {
      "op": "_mul", 
      "name": "_mul5044", 
      "inputs": [[138, 0, 0], [139, 0, 0]]
    }, 
    {
      "op": "elemwise_add", 
      "name": "_plus3363", 
      "inputs": [[137, 0, 0], [140, 0, 0]]
    }, 
    {
      "op": "Activation", 
      "name": "activation8409", 
      "attr": {"act_type": "tanh"}, 
      "inputs": [[141, 0, 0]]
    }, 
    {
      "op": "_mul", 
      "name": "_mul5045", 
      "inputs": [[135, 0, 0], [142, 0, 0]]
    }, 
    {
      "op": "Dropout", 
      "name": "dropout1681", 
      "attr": {"p": "0.2"}, 
      "inputs": [[143, 0, 0]]
    }, 
    {
      "op": "FullyConnected", 
      "name": "t2_l2_i2h", 
      "attr": {"num_hidden": "2048"}, 
      "inputs": [[144, 0, 0], [43, 0, 0], [44, 0, 0]]
    }, 
    {
      "op": "FullyConnected", 
      "name": "t2_l2_h2h", 
      "attr": {"num_hidden": "2048"}, 
      "inputs": [[110, 0, 0], [47, 0, 0], [48, 0, 0]]
    }, 
    {
      "op": "elemwise_add", 
      "name": "_plus3364", 
      "inputs": [[145, 0, 0], [146, 0, 0]]
    }, 
    {
      "op": "SliceChannel", 
      "name": "t2_l2_slice", 
      "attr": {"num_outputs": "4"}, 
      "inputs": [[147, 0, 0]]
    }, 
    {
      "op": "Activation", 
      "name": "activation8413", 
      "attr": {"act_type": "sigmoid"}, 
      "inputs": [[148, 3, 0]]
    }, 
    {
      "op": "Activation", 
      "name": "activation8412", 
      "attr": {"act_type": "sigmoid"}, 
      "inputs": [[148, 2, 0]]
    }, 
    {
      "op": "_mul", 
      "name": "_mul5046", 
      "inputs": [[150, 0, 0], [108, 0, 0]]
    }, 
    {
      "op": "Activation", 
      "name": "activation8410", 
      "attr": {"act_type": "sigmoid"}, 
      "inputs": [[148, 0, 0]]
    }, 
    {
      "op": "Activation", 
      "name": "activation8411", 
      "attr": {"act_type": "tanh"}, 
      "inputs": [[148, 1, 0]]
    }, 
    {
      "op": "_mul", 
      "name": "_mul5047", 
      "inputs": [[152, 0, 0], [153, 0, 0]]
    }, 
    {
      "op": "elemwise_add", 
      "name": "_plus3365", 
      "inputs": [[151, 0, 0], [154, 0, 0]]
    }, 
    {
      "op": "Activation", 
      "name": "activation8414", 
      "attr": {"act_type": "tanh"}, 
      "inputs": [[155, 0, 0]]
    }, 
    {
      "op": "_mul", 
      "name": "_mul5048", 
      "inputs": [[149, 0, 0], [156, 0, 0]]
    }, 
    {
      "op": "Dropout", 
      "name": "dropout1682", 
      "attr": {"p": "0.2"}, 
      "inputs": [[157, 0, 0]]
    }, 
    {
      "op": "FullyConnected", 
      "name": "fullyconnected560", 
      "attr": {"num_hidden": "4443"}, 
      "inputs": [[158, 0, 0], [63, 0, 0], [64, 0, 0]]
    }, 
    {
      "op": "null", 
      "name": "label/2", 
      "inputs": []
    }, 
    {
      "op": "SoftmaxOutput", 
      "name": "t2_sm", 
      "inputs": [[159, 0, 0], [160, 0, 0]]
    }, 
    {
      "op": "null", 
      "name": "data/3", 
      "inputs": []
    }, 
    {
      "op": "Embedding", 
      "name": "t3_embed", 
      "attr": {
        "input_dim": "4443", 
        "output_dim": "256"
      }, 
      "inputs": [[162, 0, 0], [1, 0, 0]]
    }, 
    {
      "op": "FullyConnected", 
      "name": "t3_l0_i2h", 
      "attr": {"num_hidden": "2048"}, 
      "inputs": [[163, 0, 0], [3, 0, 0], [4, 0, 0]]
    }, 
    {
      "op": "FullyConnected", 
      "name": "t3_l0_h2h", 
      "attr": {"num_hidden": "2048"}, 
      "inputs": [[129, 0, 0], [7, 0, 0], [8, 0, 0]]
    }, 
    {
      "op": "elemwise_add", 
      "name": "_plus3366", 
      "inputs": [[164, 0, 0], [165, 0, 0]]
    }, 
    {
      "op": "SliceChannel", 
      "name": "t3_l0_slice", 
      "attr": {"num_outputs": "4"}, 
      "inputs": [[166, 0, 0]]
    }, 
    {
      "op": "Activation", 
      "name": "activation8418", 
      "attr": {"act_type": "sigmoid"}, 
      "inputs": [[167, 3, 0]]
    }, 
    {
      "op": "Activation", 
      "name": "activation8417", 
      "attr": {"act_type": "sigmoid"}, 
      "inputs": [[167, 2, 0]]
    }, 
    {
      "op": "_mul", 
      "name": "_mul5049", 
      "inputs": [[169, 0, 0], [127, 0, 0]]
    }, 
    {
      "op": "Activation", 
      "name": "activation8415", 
      "attr": {"act_type": "sigmoid"}, 
      "inputs": [[167, 0, 0]]
    }, 
    {
      "op": "Activation", 
      "name": "activation8416", 
      "attr": {"act_type": "tanh"}, 
      "inputs": [[167, 1, 0]]
    }, 
    {
      "op": "_mul", 
      "name": "_mul5050", 
      "inputs": [[171, 0, 0], [172, 0, 0]]
    }, 
    {
      "op": "elemwise_add", 
      "name": "_plus3367", 
      "inputs": [[170, 0, 0], [173, 0, 0]]
    }, 
    {
      "op": "Activation", 
      "name": "activation8419", 
      "attr": {"act_type": "tanh"}, 
      "inputs": [[174, 0, 0]]
    }, 
    {
      "op": "_mul", 
      "name": "_mul5051", 
      "inputs": [[168, 0, 0], [175, 0, 0]]
    }, 
    {
      "op": "Dropout", 
      "name": "dropout1683", 
      "attr": {"p": "0.2"}, 
      "inputs": [[176, 0, 0]]
    }, 
    {
      "op": "FullyConnected", 
      "name": "t3_l1_i2h", 
      "attr": {"num_hidden": "2048"}, 
      "inputs": [[177, 0, 0], [23, 0, 0], [24, 0, 0]]
    }, 
    {
      "op": "FullyConnected", 
      "name": "t3_l1_h2h", 
      "attr": {"num_hidden": "2048"}, 
      "inputs": [[143, 0, 0], [27, 0, 0], [28, 0, 0]]
    }, 
    {
      "op": "elemwise_add", 
      "name": "_plus3368", 
      "inputs": [[178, 0, 0], [179, 0, 0]]
    }, 
    {
      "op": "SliceChannel", 
      "name": "t3_l1_slice", 
      "attr": {"num_outputs": "4"}, 
      "inputs": [[180, 0, 0]]
    }, 
    {
      "op": "Activation", 
      "name": "activation8423", 
      "attr": {"act_type": "sigmoid"}, 
      "inputs": [[181, 3, 0]]
    }, 
    {
      "op": "Activation", 
      "name": "activation8422", 
      "attr": {"act_type": "sigmoid"}, 
      "inputs": [[181, 2, 0]]
    }, 
    {
      "op": "_mul", 
      "name": "_mul5052", 
      "inputs": [[183, 0, 0], [141, 0, 0]]
    }, 
    {
      "op": "Activation", 
      "name": "activation8420", 
      "attr": {"act_type": "sigmoid"}, 
      "inputs": [[181, 0, 0]]
    }, 
    {
      "op": "Activation", 
      "name": "activation8421", 
      "attr": {"act_type": "tanh"}, 
      "inputs": [[181, 1, 0]]
    }, 
    {
      "op": "_mul", 
      "name": "_mul5053", 
      "inputs": [[185, 0, 0], [186, 0, 0]]
    }, 
    {
      "op": "elemwise_add", 
      "name": "_plus3369", 
      "inputs": [[184, 0, 0], [187, 0, 0]]
    }, 
    {
      "op": "Activation", 
      "name": "activation8424", 
      "attr": {"act_type": "tanh"}, 
      "inputs": [[188, 0, 0]]
    }, 
    {
      "op": "_mul", 
      "name": "_mul5054", 
      "inputs": [[182, 0, 0], [189, 0, 0]]
    }, 
    {
      "op": "Dropout", 
      "name": "dropout1684", 
      "attr": {"p": "0.2"}, 
      "inputs": [[190, 0, 0]]
    }, 
    {
      "op": "FullyConnected", 
      "name": "t3_l2_i2h", 
      "attr": {"num_hidden": "2048"}, 
      "inputs": [[191, 0, 0], [43, 0, 0], [44, 0, 0]]
    }, 
    {
      "op": "FullyConnected", 
      "name": "t3_l2_h2h", 
      "attr": {"num_hidden": "2048"}, 
      "inputs": [[157, 0, 0], [47, 0, 0], [48, 0, 0]]
    }, 
    {
      "op": "elemwise_add", 
      "name": "_plus3370", 
      "inputs": [[192, 0, 0], [193, 0, 0]]
    }, 
    {
      "op": "SliceChannel", 
      "name": "t3_l2_slice", 
      "attr": {"num_outputs": "4"}, 
      "inputs": [[194, 0, 0]]
    }, 
    {
      "op": "Activation", 
      "name": "activation8428", 
      "attr": {"act_type": "sigmoid"}, 
      "inputs": [[195, 3, 0]]
    }, 
    {
      "op": "Activation", 
      "name": "activation8427", 
      "attr": {"act_type": "sigmoid"}, 
      "inputs": [[195, 2, 0]]
    }, 
    {
      "op": "_mul", 
      "name": "_mul5055", 
      "inputs": [[197, 0, 0], [155, 0, 0]]
    }, 
    {
      "op": "Activation", 
      "name": "activation8425", 
      "attr": {"act_type": "sigmoid"}, 
      "inputs": [[195, 0, 0]]
    }, 
    {
      "op": "Activation", 
      "name": "activation8426", 
      "attr": {"act_type": "tanh"}, 
      "inputs": [[195, 1, 0]]
    }, 
    {
      "op": "_mul", 
      "name": "_mul5056", 
      "inputs": [[199, 0, 0], [200, 0, 0]]
    }, 
    {
      "op": "elemwise_add", 
      "name": "_plus3371", 
      "inputs": [[198, 0, 0], [201, 0, 0]]
    }, 
    {
      "op": "Activation", 
      "name": "activation8429", 
      "attr": {"act_type": "tanh"}, 
      "inputs": [[202, 0, 0]]
    }, 
    {
      "op": "_mul", 
      "name": "_mul5057", 
      "inputs": [[196, 0, 0], [203, 0, 0]]
    }, 
    {
      "op": "Dropout", 
      "name": "dropout1685", 
      "attr": {"p": "0.2"}, 
      "inputs": [[204, 0, 0]]
    }, 
    {
      "op": "FullyConnected", 
      "name": "fullyconnected561", 
      "attr": {"num_hidden": "4443"}, 
      "inputs": [[205, 0, 0], [63, 0, 0], [64, 0, 0]]
    }, 
    {
      "op": "null", 
      "name": "label/3", 
      "inputs": []
    }, 
    {
      "op": "SoftmaxOutput", 
      "name": "t3_sm", 
      "inputs": [[206, 0, 0], [207, 0, 0]]
    }, 
    {
      "op": "null", 
      "name": "data/4", 
      "inputs": []
    }, 
    {
      "op": "Embedding", 
      "name": "t4_embed", 
      "attr": {
        "input_dim": "4443", 
        "output_dim": "256"
      }, 
      "inputs": [[209, 0, 0], [1, 0, 0]]
    }, 
    {
      "op": "FullyConnected", 
      "name": "t4_l0_i2h", 
      "attr": {"num_hidden": "2048"}, 
      "inputs": [[210, 0, 0], [3, 0, 0], [4, 0, 0]]
    }, 
    {
      "op": "FullyConnected", 
      "name": "t4_l0_h2h", 
      "attr": {"num_hidden": "2048"}, 
      "inputs": [[176, 0, 0], [7, 0, 0], [8, 0, 0]]
    }, 
    {
      "op": "elemwise_add", 
      "name": "_plus3372", 
      "inputs": [[211, 0, 0], [212, 0, 0]]
    }, 
    {
      "op": "SliceChannel", 
      "name": "t4_l0_slice", 
      "attr": {"num_outputs": "4"}, 
      "inputs": [[213, 0, 0]]
    }, 
    {
      "op": "Activation", 
      "name": "activation8433", 
      "attr": {"act_type": "sigmoid"}, 
      "inputs": [[214, 3, 0]]
    }, 
    {
      "op": "Activation", 
      "name": "activation8432", 
      "attr": {"act_type": "sigmoid"}, 
      "inputs": [[214, 2, 0]]
    }, 
    {
      "op": "_mul", 
      "name": "_mul5058", 
      "inputs": [[216, 0, 0], [174, 0, 0]]
    }, 
    {
      "op": "Activation", 
      "name": "activation8430", 
      "attr": {"act_type": "sigmoid"}, 
      "inputs": [[214, 0, 0]]
    }, 
    {
      "op": "Activation", 
      "name": "activation8431", 
      "attr": {"act_type": "tanh"}, 
      "inputs": [[214, 1, 0]]
    }, 
    {
      "op": "_mul", 
      "name": "_mul5059", 
      "inputs": [[218, 0, 0], [219, 0, 0]]
    }, 
    {
      "op": "elemwise_add", 
      "name": "_plus3373", 
      "inputs": [[217, 0, 0], [220, 0, 0]]
    }, 
    {
      "op": "Activation", 
      "name": "activation8434", 
      "attr": {"act_type": "tanh"}, 
      "inputs": [[221, 0, 0]]
    }, 
    {
      "op": "_mul", 
      "name": "_mul5060", 
      "inputs": [[215, 0, 0], [222, 0, 0]]
    }, 
    {
      "op": "Dropout", 
      "name": "dropout1686", 
      "attr": {"p": "0.2"}, 
      "inputs": [[223, 0, 0]]
    }, 
    {
      "op": "FullyConnected", 
      "name": "t4_l1_i2h", 
      "attr": {"num_hidden": "2048"}, 
      "inputs": [[224, 0, 0], [23, 0, 0], [24, 0, 0]]
    }, 
    {
      "op": "FullyConnected", 
      "name": "t4_l1_h2h", 
      "attr": {"num_hidden": "2048"}, 
      "inputs": [[190, 0, 0], [27, 0, 0], [28, 0, 0]]
    }, 
    {
      "op": "elemwise_add", 
      "name": "_plus3374", 
      "inputs": [[225, 0, 0], [226, 0, 0]]
    }, 
    {
      "op": "SliceChannel", 
      "name": "t4_l1_slice", 
      "attr": {"num_outputs": "4"}, 
      "inputs": [[227, 0, 0]]
    }, 
    {
      "op": "Activation", 
      "name": "activation8438", 
      "attr": {"act_type": "sigmoid"}, 
      "inputs": [[228, 3, 0]]
    }, 
    {
      "op": "Activation", 
      "name": "activation8437", 
      "attr": {"act_type": "sigmoid"}, 
      "inputs": [[228, 2, 0]]
    }, 
    {
      "op": "_mul", 
      "name": "_mul5061", 
      "inputs": [[230, 0, 0], [188, 0, 0]]
    }, 
    {
      "op": "Activation", 
      "name": "activation8435", 
      "attr": {"act_type": "sigmoid"}, 
      "inputs": [[228, 0, 0]]
    }, 
    {
      "op": "Activation", 
      "name": "activation8436", 
      "attr": {"act_type": "tanh"}, 
      "inputs": [[228, 1, 0]]
    }, 
    {
      "op": "_mul", 
      "name": "_mul5062", 
      "inputs": [[232, 0, 0], [233, 0, 0]]
    }, 
    {
      "op": "elemwise_add", 
      "name": "_plus3375", 
      "inputs": [[231, 0, 0], [234, 0, 0]]
    }, 
    {
      "op": "Activation", 
      "name": "activation8439", 
      "attr": {"act_type": "tanh"}, 
      "inputs": [[235, 0, 0]]
    }, 
    {
      "op": "_mul", 
      "name": "_mul5063", 
      "inputs": [[229, 0, 0], [236, 0, 0]]
    }, 
    {
      "op": "Dropout", 
      "name": "dropout1687", 
      "attr": {"p": "0.2"}, 
      "inputs": [[237, 0, 0]]
    }, 
    {
      "op": "FullyConnected", 
      "name": "t4_l2_i2h", 
      "attr": {"num_hidden": "2048"}, 
      "inputs": [[238, 0, 0], [43, 0, 0], [44, 0, 0]]
    }, 
    {
      "op": "FullyConnected", 
      "name": "t4_l2_h2h", 
      "attr": {"num_hidden": "2048"}, 
      "inputs": [[204, 0, 0], [47, 0, 0], [48, 0, 0]]
    }, 
    {
      "op": "elemwise_add", 
      "name": "_plus3376", 
      "inputs": [[239, 0, 0], [240, 0, 0]]
    }, 
    {
      "op": "SliceChannel", 
      "name": "t4_l2_slice", 
      "attr": {"num_outputs": "4"}, 
      "inputs": [[241, 0, 0]]
    }, 
    {
      "op": "Activation", 
      "name": "activation8443", 
      "attr": {"act_type": "sigmoid"}, 
      "inputs": [[242, 3, 0]]
    }, 
    {
      "op": "Activation", 
      "name": "activation8442", 
      "attr": {"act_type": "sigmoid"}, 
      "inputs": [[242, 2, 0]]
    }, 
    {
      "op": "_mul", 
      "name": "_mul5064", 
      "inputs": [[244, 0, 0], [202, 0, 0]]
    }, 
    {
      "op": "Activation", 
      "name": "activation8440", 
      "attr": {"act_type": "sigmoid"}, 
      "inputs": [[242, 0, 0]]
    }, 
    {
      "op": "Activation", 
      "name": "activation8441", 
      "attr": {"act_type": "tanh"}, 
      "inputs": [[242, 1, 0]]
    }, 
    {
      "op": "_mul", 
      "name": "_mul5065", 
      "inputs": [[246, 0, 0], [247, 0, 0]]
    }, 
    {
      "op": "elemwise_add", 
      "name": "_plus3377", 
      "inputs": [[245, 0, 0], [248, 0, 0]]
    }, 
    {
      "op": "Activation", 
      "name": "activation8444", 
      "attr": {"act_type": "tanh"}, 
      "inputs": [[249, 0, 0]]
    }, 
    {
      "op": "_mul", 
      "name": "_mul5066", 
      "inputs": [[243, 0, 0], [250, 0, 0]]
    }, 
    {
      "op": "Dropout", 
      "name": "dropout1688", 
      "attr": {"p": "0.2"}, 
      "inputs": [[251, 0, 0]]
    }, 
    {
      "op": "FullyConnected", 
      "name": "fullyconnected562", 
      "attr": {"num_hidden": "4443"}, 
      "inputs": [[252, 0, 0], [63, 0, 0], [64, 0, 0]]
    }, 
    {
      "op": "null", 
      "name": "label/4", 
      "inputs": []
    }, 
    {
      "op": "SoftmaxOutput", 
      "name": "t4_sm", 
      "inputs": [[253, 0, 0], [254, 0, 0]]
    }, 
    {
      "op": "null", 
      "name": "data/5", 
      "inputs": []
    }, 
    {
      "op": "Embedding", 
      "name": "t5_embed", 
      "attr": {
        "input_dim": "4443", 
        "output_dim": "256"
      }, 
      "inputs": [[256, 0, 0], [1, 0, 0]]
    }, 
    {
      "op": "FullyConnected", 
      "name": "t5_l0_i2h", 
      "attr": {"num_hidden": "2048"}, 
      "inputs": [[257, 0, 0], [3, 0, 0], [4, 0, 0]]
    }, 
    {
      "op": "FullyConnected", 
      "name": "t5_l0_h2h", 
      "attr": {"num_hidden": "2048"}, 
      "inputs": [[223, 0, 0], [7, 0, 0], [8, 0, 0]]
    }, 
    {
      "op": "elemwise_add", 
      "name": "_plus3378", 
      "inputs": [[258, 0, 0], [259, 0, 0]]
    }, 
    {
      "op": "SliceChannel", 
      "name": "t5_l0_slice", 
      "attr": {"num_outputs": "4"}, 
      "inputs": [[260, 0, 0]]
    }, 
    {
      "op": "Activation", 
      "name": "activation8448", 
      "attr": {"act_type": "sigmoid"}, 
      "inputs": [[261, 3, 0]]
    }, 
    {
      "op": "Activation", 
      "name": "activation8447", 
      "attr": {"act_type": "sigmoid"}, 
      "inputs": [[261, 2, 0]]
    }, 
    {
      "op": "_mul", 
      "name": "_mul5067", 
      "inputs": [[263, 0, 0], [221, 0, 0]]
    }, 
    {
      "op": "Activation", 
      "name": "activation8445", 
      "attr": {"act_type": "sigmoid"}, 
      "inputs": [[261, 0, 0]]
    }, 
    {
      "op": "Activation", 
      "name": "activation8446", 
      "attr": {"act_type": "tanh"}, 
      "inputs": [[261, 1, 0]]
    }, 
    {
      "op": "_mul", 
      "name": "_mul5068", 
      "inputs": [[265, 0, 0], [266, 0, 0]]
    }, 
    {
      "op": "elemwise_add", 
      "name": "_plus3379", 
      "inputs": [[264, 0, 0], [267, 0, 0]]
    }, 
    {
      "op": "Activation", 
      "name": "activation8449", 
      "attr": {"act_type": "tanh"}, 
      "inputs": [[268, 0, 0]]
    }, 
    {
      "op": "_mul", 
      "name": "_mul5069", 
      "inputs": [[262, 0, 0], [269, 0, 0]]
    }, 
    {
      "op": "Dropout", 
      "name": "dropout1689", 
      "attr": {"p": "0.2"}, 
      "inputs": [[270, 0, 0]]
    }, 
    {
      "op": "FullyConnected", 
      "name": "t5_l1_i2h", 
      "attr": {"num_hidden": "2048"}, 
      "inputs": [[271, 0, 0], [23, 0, 0], [24, 0, 0]]
    }, 
    {
      "op": "FullyConnected", 
      "name": "t5_l1_h2h", 
      "attr": {"num_hidden": "2048"}, 
      "inputs": [[237, 0, 0], [27, 0, 0], [28, 0, 0]]
    }, 
    {
      "op": "elemwise_add", 
      "name": "_plus3380", 
      "inputs": [[272, 0, 0], [273, 0, 0]]
    }, 
    {
      "op": "SliceChannel", 
      "name": "t5_l1_slice", 
      "attr": {"num_outputs": "4"}, 
      "inputs": [[274, 0, 0]]
    }, 
    {
      "op": "Activation", 
      "name": "activation8453", 
      "attr": {"act_type": "sigmoid"}, 
      "inputs": [[275, 3, 0]]
    }, 
    {
      "op": "Activation", 
      "name": "activation8452", 
      "attr": {"act_type": "sigmoid"}, 
      "inputs": [[275, 2, 0]]
    }, 
    {
      "op": "_mul", 
      "name": "_mul5070", 
      "inputs": [[277, 0, 0], [235, 0, 0]]
    }, 
    {
      "op": "Activation", 
      "name": "activation8450", 
      "attr": {"act_type": "sigmoid"}, 
      "inputs": [[275, 0, 0]]
    }, 
    {
      "op": "Activation", 
      "name": "activation8451", 
      "attr": {"act_type": "tanh"}, 
      "inputs": [[275, 1, 0]]
    }, 
    {
      "op": "_mul", 
      "name": "_mul5071", 
      "inputs": [[279, 0, 0], [280, 0, 0]]
    }, 
    {
      "op": "elemwise_add", 
      "name": "_plus3381", 
      "inputs": [[278, 0, 0], [281, 0, 0]]
    }, 
    {
      "op": "Activation", 
      "name": "activation8454", 
      "attr": {"act_type": "tanh"}, 
      "inputs": [[282, 0, 0]]
    }, 
    {
      "op": "_mul", 
      "name": "_mul5072", 
      "inputs": [[276, 0, 0], [283, 0, 0]]
    }, 
    {
      "op": "Dropout", 
      "name": "dropout1690", 
      "attr": {"p": "0.2"}, 
      "inputs": [[284, 0, 0]]
    }, 
    {
      "op": "FullyConnected", 
      "name": "t5_l2_i2h", 
      "attr": {"num_hidden": "2048"}, 
      "inputs": [[285, 0, 0], [43, 0, 0], [44, 0, 0]]
    }, 
    {
      "op": "FullyConnected", 
      "name": "t5_l2_h2h", 
      "attr": {"num_hidden": "2048"}, 
      "inputs": [[251, 0, 0], [47, 0, 0], [48, 0, 0]]
    }, 
    {
      "op": "elemwise_add", 
      "name": "_plus3382", 
      "inputs": [[286, 0, 0], [287, 0, 0]]
    }, 
    {
      "op": "SliceChannel", 
      "name": "t5_l2_slice", 
      "attr": {"num_outputs": "4"}, 
      "inputs": [[288, 0, 0]]
    }, 
    {
      "op": "Activation", 
      "name": "activation8458", 
      "attr": {"act_type": "sigmoid"}, 
      "inputs": [[289, 3, 0]]
    }, 
    {
      "op": "Activation", 
      "name": "activation8457", 
      "attr": {"act_type": "sigmoid"}, 
      "inputs": [[289, 2, 0]]
    }, 
    {
      "op": "_mul", 
      "name": "_mul5073", 
      "inputs": [[291, 0, 0], [249, 0, 0]]
    }, 
    {
      "op": "Activation", 
      "name": "activation8455", 
      "attr": {"act_type": "sigmoid"}, 
      "inputs": [[289, 0, 0]]
    }, 
    {
      "op": "Activation", 
      "name": "activation8456", 
      "attr": {"act_type": "tanh"}, 
      "inputs": [[289, 1, 0]]
    }, 
    {
      "op": "_mul", 
      "name": "_mul5074", 
      "inputs": [[293, 0, 0], [294, 0, 0]]
    }, 
    {
      "op": "elemwise_add", 
      "name": "_plus3383", 
      "inputs": [[292, 0, 0], [295, 0, 0]]
    }, 
    {
      "op": "Activation", 
      "name": "activation8459", 
      "attr": {"act_type": "tanh"}, 
      "inputs": [[296, 0, 0]]
    }, 
    {
      "op": "_mul", 
      "name": "_mul5075", 
      "inputs": [[290, 0, 0], [297, 0, 0]]
    }, 
    {
      "op": "Dropout", 
      "name": "dropout1691", 
      "attr": {"p": "0.2"}, 
      "inputs": [[298, 0, 0]]
    }, 
    {
      "op": "FullyConnected", 
      "name": "fullyconnected563", 
      "attr": {"num_hidden": "4443"}, 
      "inputs": [[299, 0, 0], [63, 0, 0], [64, 0, 0]]
    }, 
    {
      "op": "null", 
      "name": "label/5", 
      "inputs": []
    }, 
    {
      "op": "SoftmaxOutput", 
      "name": "t5_sm", 
      "inputs": [[300, 0, 0], [301, 0, 0]]
    }, 
    {
      "op": "null", 
      "name": "data/6", 
      "inputs": []
    }, 
    {
      "op": "Embedding", 
      "name": "t6_embed", 
      "attr": {
        "input_dim": "4443", 
        "output_dim": "256"
      }, 
      "inputs": [[303, 0, 0], [1, 0, 0]]
    }, 
    {
      "op": "FullyConnected", 
      "name": "t6_l0_i2h", 
      "attr": {"num_hidden": "2048"}, 
      "inputs": [[304, 0, 0], [3, 0, 0], [4, 0, 0]]
    }, 
    {
      "op": "FullyConnected", 
      "name": "t6_l0_h2h", 
      "attr": {"num_hidden": "2048"}, 
      "inputs": [[270, 0, 0], [7, 0, 0], [8, 0, 0]]
    }, 
    {
      "op": "elemwise_add", 
      "name": "_plus3384", 
      "inputs": [[305, 0, 0], [306, 0, 0]]
    }, 
    {
      "op": "SliceChannel", 
      "name": "t6_l0_slice", 
      "attr": {"num_outputs": "4"}, 
      "inputs": [[307, 0, 0]]
    }, 
    {
      "op": "Activation", 
      "name": "activation8463", 
      "attr": {"act_type": "sigmoid"}, 
      "inputs": [[308, 3, 0]]
    }, 
    {
      "op": "Activation", 
      "name": "activation8462", 
      "attr": {"act_type": "sigmoid"}, 
      "inputs": [[308, 2, 0]]
    }, 
    {
      "op": "_mul", 
      "name": "_mul5076", 
      "inputs": [[310, 0, 0], [268, 0, 0]]
    }, 
    {
      "op": "Activation", 
      "name": "activation8460", 
      "attr": {"act_type": "sigmoid"}, 
      "inputs": [[308, 0, 0]]
    }, 
    {
      "op": "Activation", 
      "name": "activation8461", 
      "attr": {"act_type": "tanh"}, 
      "inputs": [[308, 1, 0]]
    }, 
    {
      "op": "_mul", 
      "name": "_mul5077", 
      "inputs": [[312, 0, 0], [313, 0, 0]]
    }, 
    {
      "op": "elemwise_add", 
      "name": "_plus3385", 
      "inputs": [[311, 0, 0], [314, 0, 0]]
    }, 
    {
      "op": "Activation", 
      "name": "activation8464", 
      "attr": {"act_type": "tanh"}, 
      "inputs": [[315, 0, 0]]
    }, 
    {
      "op": "_mul", 
      "name": "_mul5078", 
      "inputs": [[309, 0, 0], [316, 0, 0]]
    }, 
    {
      "op": "Dropout", 
      "name": "dropout1692", 
      "attr": {"p": "0.2"}, 
      "inputs": [[317, 0, 0]]
    }, 
    {
      "op": "FullyConnected", 
      "name": "t6_l1_i2h", 
      "attr": {"num_hidden": "2048"}, 
      "inputs": [[318, 0, 0], [23, 0, 0], [24, 0, 0]]
    }, 
    {
      "op": "FullyConnected", 
      "name": "t6_l1_h2h", 
      "attr": {"num_hidden": "2048"}, 
      "inputs": [[284, 0, 0], [27, 0, 0], [28, 0, 0]]
    }, 
    {
      "op": "elemwise_add", 
      "name": "_plus3386", 
      "inputs": [[319, 0, 0], [320, 0, 0]]
    }, 
    {
      "op": "SliceChannel", 
      "name": "t6_l1_slice", 
      "attr": {"num_outputs": "4"}, 
      "inputs": [[321, 0, 0]]
    }, 
    {
      "op": "Activation", 
      "name": "activation8468", 
      "attr": {"act_type": "sigmoid"}, 
      "inputs": [[322, 3, 0]]
    }, 
    {
      "op": "Activation", 
      "name": "activation8467", 
      "attr": {"act_type": "sigmoid"}, 
      "inputs": [[322, 2, 0]]
    }, 
    {
      "op": "_mul", 
      "name": "_mul5079", 
      "inputs": [[324, 0, 0], [282, 0, 0]]
    }, 
    {
      "op": "Activation", 
      "name": "activation8465", 
      "attr": {"act_type": "sigmoid"}, 
      "inputs": [[322, 0, 0]]
    }, 
    {
      "op": "Activation", 
      "name": "activation8466", 
      "attr": {"act_type": "tanh"}, 
      "inputs": [[322, 1, 0]]
    }, 
    {
      "op": "_mul", 
      "name": "_mul5080", 
      "inputs": [[326, 0, 0], [327, 0, 0]]
    }, 
    {
      "op": "elemwise_add", 
      "name": "_plus3387", 
      "inputs": [[325, 0, 0], [328, 0, 0]]
    }, 
    {
      "op": "Activation", 
      "name": "activation8469", 
      "attr": {"act_type": "tanh"}, 
      "inputs": [[329, 0, 0]]
    }, 
    {
      "op": "_mul", 
      "name": "_mul5081", 
      "inputs": [[323, 0, 0], [330, 0, 0]]
    }, 
    {
      "op": "Dropout", 
      "name": "dropout1693", 
      "attr": {"p": "0.2"}, 
      "inputs": [[331, 0, 0]]
    }, 
    {
      "op": "FullyConnected", 
      "name": "t6_l2_i2h", 
      "attr": {"num_hidden": "2048"}, 
      "inputs": [[332, 0, 0], [43, 0, 0], [44, 0, 0]]
    }, 
    {
      "op": "FullyConnected", 
      "name": "t6_l2_h2h", 
      "attr": {"num_hidden": "2048"}, 
      "inputs": [[298, 0, 0], [47, 0, 0], [48, 0, 0]]
    }, 
    {
      "op": "elemwise_add", 
      "name": "_plus3388", 
      "inputs": [[333, 0, 0], [334, 0, 0]]
    }, 
    {
      "op": "SliceChannel", 
      "name": "t6_l2_slice", 
      "attr": {"num_outputs": "4"}, 
      "inputs": [[335, 0, 0]]
    }, 
    {
      "op": "Activation", 
      "name": "activation8473", 
      "attr": {"act_type": "sigmoid"}, 
      "inputs": [[336, 3, 0]]
    }, 
    {
      "op": "Activation", 
      "name": "activation8472", 
      "attr": {"act_type": "sigmoid"}, 
      "inputs": [[336, 2, 0]]
    }, 
    {
      "op": "_mul", 
      "name": "_mul5082", 
      "inputs": [[338, 0, 0], [296, 0, 0]]
    }, 
    {
      "op": "Activation", 
      "name": "activation8470", 
      "attr": {"act_type": "sigmoid"}, 
      "inputs": [[336, 0, 0]]
    }, 
    {
      "op": "Activation", 
      "name": "activation8471", 
      "attr": {"act_type": "tanh"}, 
      "inputs": [[336, 1, 0]]
    }, 
    {
      "op": "_mul", 
      "name": "_mul5083", 
      "inputs": [[340, 0, 0], [341, 0, 0]]
    }, 
    {
      "op": "elemwise_add", 
      "name": "_plus3389", 
      "inputs": [[339, 0, 0], [342, 0, 0]]
    }, 
    {
      "op": "Activation", 
      "name": "activation8474", 
      "attr": {"act_type": "tanh"}, 
      "inputs": [[343, 0, 0]]
    }, 
    {
      "op": "_mul", 
      "name": "_mul5084", 
      "inputs": [[337, 0, 0], [344, 0, 0]]
    }, 
    {
      "op": "Dropout", 
      "name": "dropout1694", 
      "attr": {"p": "0.2"}, 
      "inputs": [[345, 0, 0]]
    }, 
    {
      "op": "FullyConnected", 
      "name": "fullyconnected564", 
      "attr": {"num_hidden": "4443"}, 
      "inputs": [[346, 0, 0], [63, 0, 0], [64, 0, 0]]
    }, 
    {
      "op": "null", 
      "name": "label/6", 
      "inputs": []
    }, 
    {
      "op": "SoftmaxOutput", 
      "name": "t6_sm", 
      "inputs": [[347, 0, 0], [348, 0, 0]]
    }, 
    {
      "op": "null", 
      "name": "data/7", 
      "inputs": []
    }, 
    {
      "op": "Embedding", 
      "name": "t7_embed", 
      "attr": {
        "input_dim": "4443", 
        "output_dim": "256"
      }, 
      "inputs": [[350, 0, 0], [1, 0, 0]]
    }, 
    {
      "op": "FullyConnected", 
      "name": "t7_l0_i2h", 
      "attr": {"num_hidden": "2048"}, 
      "inputs": [[351, 0, 0], [3, 0, 0], [4, 0, 0]]
    }, 
    {
      "op": "FullyConnected", 
      "name": "t7_l0_h2h", 
      "attr": {"num_hidden": "2048"}, 
      "inputs": [[317, 0, 0], [7, 0, 0], [8, 0, 0]]
    }, 
    {
      "op": "elemwise_add", 
      "name": "_plus3390", 
      "inputs": [[352, 0, 0], [353, 0, 0]]
    }, 
    {
      "op": "SliceChannel", 
      "name": "t7_l0_slice", 
      "attr": {"num_outputs": "4"}, 
      "inputs": [[354, 0, 0]]
    }, 
    {
      "op": "Activation", 
      "name": "activation8478", 
      "attr": {"act_type": "sigmoid"}, 
      "inputs": [[355, 3, 0]]
    }, 
    {
      "op": "Activation", 
      "name": "activation8477", 
      "attr": {"act_type": "sigmoid"}, 
      "inputs": [[355, 2, 0]]
    }, 
    {
      "op": "_mul", 
      "name": "_mul5085", 
      "inputs": [[357, 0, 0], [315, 0, 0]]
    }, 
    {
      "op": "Activation", 
      "name": "activation8475", 
      "attr": {"act_type": "sigmoid"}, 
      "inputs": [[355, 0, 0]]
    }, 
    {
      "op": "Activation", 
      "name": "activation8476", 
      "attr": {"act_type": "tanh"}, 
      "inputs": [[355, 1, 0]]
    }, 
    {
      "op": "_mul", 
      "name": "_mul5086", 
      "inputs": [[359, 0, 0], [360, 0, 0]]
    }, 
    {
      "op": "elemwise_add", 
      "name": "_plus3391", 
      "inputs": [[358, 0, 0], [361, 0, 0]]
    }, 
    {
      "op": "Activation", 
      "name": "activation8479", 
      "attr": {"act_type": "tanh"}, 
      "inputs": [[362, 0, 0]]
    }, 
    {
      "op": "_mul", 
      "name": "_mul5087", 
      "inputs": [[356, 0, 0], [363, 0, 0]]
    }, 
    {
      "op": "Dropout", 
      "name": "dropout1695", 
      "attr": {"p": "0.2"}, 
      "inputs": [[364, 0, 0]]
    }, 
    {
      "op": "FullyConnected", 
      "name": "t7_l1_i2h", 
      "attr": {"num_hidden": "2048"}, 
      "inputs": [[365, 0, 0], [23, 0, 0], [24, 0, 0]]
    }, 
    {
      "op": "FullyConnected", 
      "name": "t7_l1_h2h", 
      "attr": {"num_hidden": "2048"}, 
      "inputs": [[331, 0, 0], [27, 0, 0], [28, 0, 0]]
    }, 
    {
      "op": "elemwise_add", 
      "name": "_plus3392", 
      "inputs": [[366, 0, 0], [367, 0, 0]]
    }, 
    {
      "op": "SliceChannel", 
      "name": "t7_l1_slice", 
      "attr": {"num_outputs": "4"}, 
      "inputs": [[368, 0, 0]]
    }, 
    {
      "op": "Activation", 
      "name": "activation8483", 
      "attr": {"act_type": "sigmoid"}, 
      "inputs": [[369, 3, 0]]
    }, 
    {
      "op": "Activation", 
      "name": "activation8482", 
      "attr": {"act_type": "sigmoid"}, 
      "inputs": [[369, 2, 0]]
    }, 
    {
      "op": "_mul", 
      "name": "_mul5088", 
      "inputs": [[371, 0, 0], [329, 0, 0]]
    }, 
    {
      "op": "Activation", 
      "name": "activation8480", 
      "attr": {"act_type": "sigmoid"}, 
      "inputs": [[369, 0, 0]]
    }, 
    {
      "op": "Activation", 
      "name": "activation8481", 
      "attr": {"act_type": "tanh"}, 
      "inputs": [[369, 1, 0]]
    }, 
    {
      "op": "_mul", 
      "name": "_mul5089", 
      "inputs": [[373, 0, 0], [374, 0, 0]]
    }, 
    {
      "op": "elemwise_add", 
      "name": "_plus3393", 
      "inputs": [[372, 0, 0], [375, 0, 0]]
    }, 
    {
      "op": "Activation", 
      "name": "activation8484", 
      "attr": {"act_type": "tanh"}, 
      "inputs": [[376, 0, 0]]
    }, 
    {
      "op": "_mul", 
      "name": "_mul5090", 
      "inputs": [[370, 0, 0], [377, 0, 0]]
    }, 
    {
      "op": "Dropout", 
      "name": "dropout1696", 
      "attr": {"p": "0.2"}, 
      "inputs": [[378, 0, 0]]
    }, 
    {
      "op": "FullyConnected", 
      "name": "t7_l2_i2h", 
      "attr": {"num_hidden": "2048"}, 
      "inputs": [[379, 0, 0], [43, 0, 0], [44, 0, 0]]
    }, 
    {
      "op": "FullyConnected", 
      "name": "t7_l2_h2h", 
      "attr": {"num_hidden": "2048"}, 
      "inputs": [[345, 0, 0], [47, 0, 0], [48, 0, 0]]
    }, 
    {
      "op": "elemwise_add", 
      "name": "_plus3394", 
      "inputs": [[380, 0, 0], [381, 0, 0]]
    }, 
    {
      "op": "SliceChannel", 
      "name": "t7_l2_slice", 
      "attr": {"num_outputs": "4"}, 
      "inputs": [[382, 0, 0]]
    }, 
    {
      "op": "Activation", 
      "name": "activation8488", 
      "attr": {"act_type": "sigmoid"}, 
      "inputs": [[383, 3, 0]]
    }, 
    {
      "op": "Activation", 
      "name": "activation8487", 
      "attr": {"act_type": "sigmoid"}, 
      "inputs": [[383, 2, 0]]
    }, 
    {
      "op": "_mul", 
      "name": "_mul5091", 
      "inputs": [[385, 0, 0], [343, 0, 0]]
    }, 
    {
      "op": "Activation", 
      "name": "activation8485", 
      "attr": {"act_type": "sigmoid"}, 
      "inputs": [[383, 0, 0]]
    }, 
    {
      "op": "Activation", 
      "name": "activation8486", 
      "attr": {"act_type": "tanh"}, 
      "inputs": [[383, 1, 0]]
    }, 
    {
      "op": "_mul", 
      "name": "_mul5092", 
      "inputs": [[387, 0, 0], [388, 0, 0]]
    }, 
    {
      "op": "elemwise_add", 
      "name": "_plus3395", 
      "inputs": [[386, 0, 0], [389, 0, 0]]
    }, 
    {
      "op": "Activation", 
      "name": "activation8489", 
      "attr": {"act_type": "tanh"}, 
      "inputs": [[390, 0, 0]]
    }, 
    {
      "op": "_mul", 
      "name": "_mul5093", 
      "inputs": [[384, 0, 0], [391, 0, 0]]
    }, 
    {
      "op": "Dropout", 
      "name": "dropout1697", 
      "attr": {"p": "0.2"}, 
      "inputs": [[392, 0, 0]]
    }, 
    {
      "op": "FullyConnected", 
      "name": "fullyconnected565", 
      "attr": {"num_hidden": "4443"}, 
      "inputs": [[393, 0, 0], [63, 0, 0], [64, 0, 0]]
    }, 
    {
      "op": "null", 
      "name": "label/7", 
      "inputs": []
    }, 
    {
      "op": "SoftmaxOutput", 
      "name": "t7_sm", 
      "inputs": [[394, 0, 0], [395, 0, 0]]
    }, 
    {
      "op": "null", 
      "name": "data/8", 
      "inputs": []
    }, 
    {
      "op": "Embedding", 
      "name": "t8_embed", 
      "attr": {
        "input_dim": "4443", 
        "output_dim": "256"
      }, 
      "inputs": [[397, 0, 0], [1, 0, 0]]
    }, 
    {
      "op": "FullyConnected", 
      "name": "t8_l0_i2h", 
      "attr": {"num_hidden": "2048"}, 
      "inputs": [[398, 0, 0], [3, 0, 0], [4, 0, 0]]
    }, 
    {
      "op": "FullyConnected", 
      "name": "t8_l0_h2h", 
      "attr": {"num_hidden": "2048"}, 
      "inputs": [[364, 0, 0], [7, 0, 0], [8, 0, 0]]
    }, 
    {
      "op": "elemwise_add", 
      "name": "_plus3396", 
      "inputs": [[399, 0, 0], [400, 0, 0]]
    }, 
    {
      "op": "SliceChannel", 
      "name": "t8_l0_slice", 
      "attr": {"num_outputs": "4"}, 
      "inputs": [[401, 0, 0]]
    }, 
    {
      "op": "Activation", 
      "name": "activation8493", 
      "attr": {"act_type": "sigmoid"}, 
      "inputs": [[402, 3, 0]]
    }, 
    {
      "op": "Activation", 
      "name": "activation8492", 
      "attr": {"act_type": "sigmoid"}, 
      "inputs": [[402, 2, 0]]
    }, 
    {
      "op": "_mul", 
      "name": "_mul5094", 
      "inputs": [[404, 0, 0], [362, 0, 0]]
    }, 
    {
      "op": "Activation", 
      "name": "activation8490", 
      "attr": {"act_type": "sigmoid"}, 
      "inputs": [[402, 0, 0]]
    }, 
    {
      "op": "Activation", 
      "name": "activation8491", 
      "attr": {"act_type": "tanh"}, 
      "inputs": [[402, 1, 0]]
    }, 
    {
      "op": "_mul", 
      "name": "_mul5095", 
      "inputs": [[406, 0, 0], [407, 0, 0]]
    }, 
    {
      "op": "elemwise_add", 
      "name": "_plus3397", 
      "inputs": [[405, 0, 0], [408, 0, 0]]
    }, 
    {
      "op": "Activation", 
      "name": "activation8494", 
      "attr": {"act_type": "tanh"}, 
      "inputs": [[409, 0, 0]]
    }, 
    {
      "op": "_mul", 
      "name": "_mul5096", 
      "inputs": [[403, 0, 0], [410, 0, 0]]
    }, 
    {
      "op": "Dropout", 
      "name": "dropout1698", 
      "attr": {"p": "0.2"}, 
      "inputs": [[411, 0, 0]]
    }, 
    {
      "op": "FullyConnected", 
      "name": "t8_l1_i2h", 
      "attr": {"num_hidden": "2048"}, 
      "inputs": [[412, 0, 0], [23, 0, 0], [24, 0, 0]]
    }, 
    {
      "op": "FullyConnected", 
      "name": "t8_l1_h2h", 
      "attr": {"num_hidden": "2048"}, 
      "inputs": [[378, 0, 0], [27, 0, 0], [28, 0, 0]]
    }, 
    {
      "op": "elemwise_add", 
      "name": "_plus3398", 
      "inputs": [[413, 0, 0], [414, 0, 0]]
    }, 
    {
      "op": "SliceChannel", 
      "name": "t8_l1_slice", 
      "attr": {"num_outputs": "4"}, 
      "inputs": [[415, 0, 0]]
    }, 
    {
      "op": "Activation", 
      "name": "activation8498", 
      "attr": {"act_type": "sigmoid"}, 
      "inputs": [[416, 3, 0]]
    }, 
    {
      "op": "Activation", 
      "name": "activation8497", 
      "attr": {"act_type": "sigmoid"}, 
      "inputs": [[416, 2, 0]]
    }, 
    {
      "op": "_mul", 
      "name": "_mul5097", 
      "inputs": [[418, 0, 0], [376, 0, 0]]
    }, 
    {
      "op": "Activation", 
      "name": "activation8495", 
      "attr": {"act_type": "sigmoid"}, 
      "inputs": [[416, 0, 0]]
    }, 
    {
      "op": "Activation", 
      "name": "activation8496", 
      "attr": {"act_type": "tanh"}, 
      "inputs": [[416, 1, 0]]
    }, 
    {
      "op": "_mul", 
      "name": "_mul5098", 
      "inputs": [[420, 0, 0], [421, 0, 0]]
    }, 
    {
      "op": "elemwise_add", 
      "name": "_plus3399", 
      "inputs": [[419, 0, 0], [422, 0, 0]]
    }, 
    {
      "op": "Activation", 
      "name": "activation8499", 
      "attr": {"act_type": "tanh"}, 
      "inputs": [[423, 0, 0]]
    }, 
    {
      "op": "_mul", 
      "name": "_mul5099", 
      "inputs": [[417, 0, 0], [424, 0, 0]]
    }, 
    {
      "op": "Dropout", 
      "name": "dropout1699", 
      "attr": {"p": "0.2"}, 
      "inputs": [[425, 0, 0]]
    }, 
    {
      "op": "FullyConnected", 
      "name": "t8_l2_i2h", 
      "attr": {"num_hidden": "2048"}, 
      "inputs": [[426, 0, 0], [43, 0, 0], [44, 0, 0]]
    }, 
    {
      "op": "FullyConnected", 
      "name": "t8_l2_h2h", 
      "attr": {"num_hidden": "2048"}, 
      "inputs": [[392, 0, 0], [47, 0, 0], [48, 0, 0]]
    }, 
    {
      "op": "elemwise_add", 
      "name": "_plus3400", 
      "inputs": [[427, 0, 0], [428, 0, 0]]
    }, 
    {
      "op": "SliceChannel", 
      "name": "t8_l2_slice", 
      "attr": {"num_outputs": "4"}, 
      "inputs": [[429, 0, 0]]
    }, 
    {
      "op": "Activation", 
      "name": "activation8503", 
      "attr": {"act_type": "sigmoid"}, 
      "inputs": [[430, 3, 0]]
    }, 
    {
      "op": "Activation", 
      "name": "activation8502", 
      "attr": {"act_type": "sigmoid"}, 
      "inputs": [[430, 2, 0]]
    }, 
    {
      "op": "_mul", 
      "name": "_mul5100", 
      "inputs": [[432, 0, 0], [390, 0, 0]]
    }, 
    {
      "op": "Activation", 
      "name": "activation8500", 
      "attr": {"act_type": "sigmoid"}, 
      "inputs": [[430, 0, 0]]
    }, 
    {
      "op": "Activation", 
      "name": "activation8501", 
      "attr": {"act_type": "tanh"}, 
      "inputs": [[430, 1, 0]]
    }, 
    {
      "op": "_mul", 
      "name": "_mul5101", 
      "inputs": [[434, 0, 0], [435, 0, 0]]
    }, 
    {
      "op": "elemwise_add", 
      "name": "_plus3401", 
      "inputs": [[433, 0, 0], [436, 0, 0]]
    }, 
    {
      "op": "Activation", 
      "name": "activation8504", 
      "attr": {"act_type": "tanh"}, 
      "inputs": [[437, 0, 0]]
    }, 
    {
      "op": "_mul", 
      "name": "_mul5102", 
      "inputs": [[431, 0, 0], [438, 0, 0]]
    }, 
    {
      "op": "Dropout", 
      "name": "dropout1700", 
      "attr": {"p": "0.2"}, 
      "inputs": [[439, 0, 0]]
    }, 
    {
      "op": "FullyConnected", 
      "name": "fullyconnected566", 
      "attr": {"num_hidden": "4443"}, 
      "inputs": [[440, 0, 0], [63, 0, 0], [64, 0, 0]]
    }, 
    {
      "op": "null", 
      "name": "label/8", 
      "inputs": []
    }, 
    {
      "op": "SoftmaxOutput", 
      "name": "t8_sm", 
      "inputs": [[441, 0, 0], [442, 0, 0]]
    }, 
    {
      "op": "null", 
      "name": "data/9", 
      "inputs": []
    }, 
    {
      "op": "Embedding", 
      "name": "t9_embed", 
      "attr": {
        "input_dim": "4443", 
        "output_dim": "256"
      }, 
      "inputs": [[444, 0, 0], [1, 0, 0]]
    }, 
    {
      "op": "FullyConnected", 
      "name": "t9_l0_i2h", 
      "attr": {"num_hidden": "2048"}, 
      "inputs": [[445, 0, 0], [3, 0, 0], [4, 0, 0]]
    }, 
    {
      "op": "FullyConnected", 
      "name": "t9_l0_h2h", 
      "attr": {"num_hidden": "2048"}, 
      "inputs": [[411, 0, 0], [7, 0, 0], [8, 0, 0]]
    }, 
    {
      "op": "elemwise_add", 
      "name": "_plus3402", 
      "inputs": [[446, 0, 0], [447, 0, 0]]
    }, 
    {
      "op": "SliceChannel", 
      "name": "t9_l0_slice", 
      "attr": {"num_outputs": "4"}, 
      "inputs": [[448, 0, 0]]
    }, 
    {
      "op": "Activation", 
      "name": "activation8508", 
      "attr": {"act_type": "sigmoid"}, 
      "inputs": [[449, 3, 0]]
    }, 
    {
      "op": "Activation", 
      "name": "activation8507", 
      "attr": {"act_type": "sigmoid"}, 
      "inputs": [[449, 2, 0]]
    }, 
    {
      "op": "_mul", 
      "name": "_mul5103", 
      "inputs": [[451, 0, 0], [409, 0, 0]]
    }, 
    {
      "op": "Activation", 
      "name": "activation8505", 
      "attr": {"act_type": "sigmoid"}, 
      "inputs": [[449, 0, 0]]
    }, 
    {
      "op": "Activation", 
      "name": "activation8506", 
      "attr": {"act_type": "tanh"}, 
      "inputs": [[449, 1, 0]]
    }, 
    {
      "op": "_mul", 
      "name": "_mul5104", 
      "inputs": [[453, 0, 0], [454, 0, 0]]
    }, 
    {
      "op": "elemwise_add", 
      "name": "_plus3403", 
      "inputs": [[452, 0, 0], [455, 0, 0]]
    }, 
    {
      "op": "Activation", 
      "name": "activation8509", 
      "attr": {"act_type": "tanh"}, 
      "inputs": [[456, 0, 0]]
    }, 
    {
      "op": "_mul", 
      "name": "_mul5105", 
      "inputs": [[450, 0, 0], [457, 0, 0]]
    }, 
    {
      "op": "Dropout", 
      "name": "dropout1701", 
      "attr": {"p": "0.2"}, 
      "inputs": [[458, 0, 0]]
    }, 
    {
      "op": "FullyConnected", 
      "name": "t9_l1_i2h", 
      "attr": {"num_hidden": "2048"}, 
      "inputs": [[459, 0, 0], [23, 0, 0], [24, 0, 0]]
    }, 
    {
      "op": "FullyConnected", 
      "name": "t9_l1_h2h", 
      "attr": {"num_hidden": "2048"}, 
      "inputs": [[425, 0, 0], [27, 0, 0], [28, 0, 0]]
    }, 
    {
      "op": "elemwise_add", 
      "name": "_plus3404", 
      "inputs": [[460, 0, 0], [461, 0, 0]]
    }, 
    {
      "op": "SliceChannel", 
      "name": "t9_l1_slice", 
      "attr": {"num_outputs": "4"}, 
      "inputs": [[462, 0, 0]]
    }, 
    {
      "op": "Activation", 
      "name": "activation8513", 
      "attr": {"act_type": "sigmoid"}, 
      "inputs": [[463, 3, 0]]
    }, 
    {
      "op": "Activation", 
      "name": "activation8512", 
      "attr": {"act_type": "sigmoid"}, 
      "inputs": [[463, 2, 0]]
    }, 
    {
      "op": "_mul", 
      "name": "_mul5106", 
      "inputs": [[465, 0, 0], [423, 0, 0]]
    }, 
    {
      "op": "Activation", 
      "name": "activation8510", 
      "attr": {"act_type": "sigmoid"}, 
      "inputs": [[463, 0, 0]]
    }, 
    {
      "op": "Activation", 
      "name": "activation8511", 
      "attr": {"act_type": "tanh"}, 
      "inputs": [[463, 1, 0]]
    }, 
    {
      "op": "_mul", 
      "name": "_mul5107", 
      "inputs": [[467, 0, 0], [468, 0, 0]]
    }, 
    {
      "op": "elemwise_add", 
      "name": "_plus3405", 
      "inputs": [[466, 0, 0], [469, 0, 0]]
    }, 
    {
      "op": "Activation", 
      "name": "activation8514", 
      "attr": {"act_type": "tanh"}, 
      "inputs": [[470, 0, 0]]
    }, 
    {
      "op": "_mul", 
      "name": "_mul5108", 
      "inputs": [[464, 0, 0], [471, 0, 0]]
    }, 
    {
      "op": "Dropout", 
      "name": "dropout1702", 
      "attr": {"p": "0.2"}, 
      "inputs": [[472, 0, 0]]
    }, 
    {
      "op": "FullyConnected", 
      "name": "t9_l2_i2h", 
      "attr": {"num_hidden": "2048"}, 
      "inputs": [[473, 0, 0], [43, 0, 0], [44, 0, 0]]
    }, 
    {
      "op": "FullyConnected", 
      "name": "t9_l2_h2h", 
      "attr": {"num_hidden": "2048"}, 
      "inputs": [[439, 0, 0], [47, 0, 0], [48, 0, 0]]
    }, 
    {
      "op": "elemwise_add", 
      "name": "_plus3406", 
      "inputs": [[474, 0, 0], [475, 0, 0]]
    }, 
    {
      "op": "SliceChannel", 
      "name": "t9_l2_slice", 
      "attr": {"num_outputs": "4"}, 
      "inputs": [[476, 0, 0]]
    }, 
    {
      "op": "Activation", 
      "name": "activation8518", 
      "attr": {"act_type": "sigmoid"}, 
      "inputs": [[477, 3, 0]]
    }, 
    {
      "op": "Activation", 
      "name": "activation8517", 
      "attr": {"act_type": "sigmoid"}, 
      "inputs": [[477, 2, 0]]
    }, 
    {
      "op": "_mul", 
      "name": "_mul5109", 
      "inputs": [[479, 0, 0], [437, 0, 0]]
    }, 
    {
      "op": "Activation", 
      "name": "activation8515", 
      "attr": {"act_type": "sigmoid"}, 
      "inputs": [[477, 0, 0]]
    }, 
    {
      "op": "Activation", 
      "name": "activation8516", 
      "attr": {"act_type": "tanh"}, 
      "inputs": [[477, 1, 0]]
    }, 
    {
      "op": "_mul", 
      "name": "_mul5110", 
      "inputs": [[481, 0, 0], [482, 0, 0]]
    }, 
    {
      "op": "elemwise_add", 
      "name": "_plus3407", 
      "inputs": [[480, 0, 0], [483, 0, 0]]
    }, 
    {
      "op": "Activation", 
      "name": "activation8519", 
      "attr": {"act_type": "tanh"}, 
      "inputs": [[484, 0, 0]]
    }, 
    {
      "op": "_mul", 
      "name": "_mul5111", 
      "inputs": [[478, 0, 0], [485, 0, 0]]
    }, 
    {
      "op": "Dropout", 
      "name": "dropout1703", 
      "attr": {"p": "0.2"}, 
      "inputs": [[486, 0, 0]]
    }, 
    {
      "op": "FullyConnected", 
      "name": "fullyconnected567", 
      "attr": {"num_hidden": "4443"}, 
      "inputs": [[487, 0, 0], [63, 0, 0], [64, 0, 0]]
    }, 
    {
      "op": "null", 
      "name": "label/9", 
      "inputs": []
    }, 
    {
      "op": "SoftmaxOutput", 
      "name": "t9_sm", 
      "inputs": [[488, 0, 0], [489, 0, 0]]
    }, 
    {
      "op": "null", 
      "name": "data/10", 
      "inputs": []
    }, 
    {
      "op": "Embedding", 
      "name": "t10_embed", 
      "attr": {
        "input_dim": "4443", 
        "output_dim": "256"
      }, 
      "inputs": [[491, 0, 0], [1, 0, 0]]
    }, 
    {
      "op": "FullyConnected", 
      "name": "t10_l0_i2h", 
      "attr": {"num_hidden": "2048"}, 
      "inputs": [[492, 0, 0], [3, 0, 0], [4, 0, 0]]
    }, 
    {
      "op": "FullyConnected", 
      "name": "t10_l0_h2h", 
      "attr": {"num_hidden": "2048"}, 
      "inputs": [[458, 0, 0], [7, 0, 0], [8, 0, 0]]
    }, 
    {
      "op": "elemwise_add", 
      "name": "_plus3408", 
      "inputs": [[493, 0, 0], [494, 0, 0]]
    }, 
    {
      "op": "SliceChannel", 
      "name": "t10_l0_slice", 
      "attr": {"num_outputs": "4"}, 
      "inputs": [[495, 0, 0]]
    }, 
    {
      "op": "Activation", 
      "name": "activation8523", 
      "attr": {"act_type": "sigmoid"}, 
      "inputs": [[496, 3, 0]]
    }, 
    {
      "op": "Activation", 
      "name": "activation8522", 
      "attr": {"act_type": "sigmoid"}, 
      "inputs": [[496, 2, 0]]
    }, 
    {
      "op": "_mul", 
      "name": "_mul5112", 
      "inputs": [[498, 0, 0], [456, 0, 0]]
    }, 
    {
      "op": "Activation", 
      "name": "activation8520", 
      "attr": {"act_type": "sigmoid"}, 
      "inputs": [[496, 0, 0]]
    }, 
    {
      "op": "Activation", 
      "name": "activation8521", 
      "attr": {"act_type": "tanh"}, 
      "inputs": [[496, 1, 0]]
    }, 
    {
      "op": "_mul", 
      "name": "_mul5113", 
      "inputs": [[500, 0, 0], [501, 0, 0]]
    }, 
    {
      "op": "elemwise_add", 
      "name": "_plus3409", 
      "inputs": [[499, 0, 0], [502, 0, 0]]
    }, 
    {
      "op": "Activation", 
      "name": "activation8524", 
      "attr": {"act_type": "tanh"}, 
      "inputs": [[503, 0, 0]]
    }, 
    {
      "op": "_mul", 
      "name": "_mul5114", 
      "inputs": [[497, 0, 0], [504, 0, 0]]
    }, 
    {
      "op": "Dropout", 
      "name": "dropout1704", 
      "attr": {"p": "0.2"}, 
      "inputs": [[505, 0, 0]]
    }, 
    {
      "op": "FullyConnected", 
      "name": "t10_l1_i2h", 
      "attr": {"num_hidden": "2048"}, 
      "inputs": [[506, 0, 0], [23, 0, 0], [24, 0, 0]]
    }, 
    {
      "op": "FullyConnected", 
      "name": "t10_l1_h2h", 
      "attr": {"num_hidden": "2048"}, 
      "inputs": [[472, 0, 0], [27, 0, 0], [28, 0, 0]]
    }, 
    {
      "op": "elemwise_add", 
      "name": "_plus3410", 
      "inputs": [[507, 0, 0], [508, 0, 0]]
    }, 
    {
      "op": "SliceChannel", 
      "name": "t10_l1_slice", 
      "attr": {"num_outputs": "4"}, 
      "inputs": [[509, 0, 0]]
    }, 
    {
      "op": "Activation", 
      "name": "activation8528", 
      "attr": {"act_type": "sigmoid"}, 
      "inputs": [[510, 3, 0]]
    }, 
    {
      "op": "Activation", 
      "name": "activation8527", 
      "attr": {"act_type": "sigmoid"}, 
      "inputs": [[510, 2, 0]]
    }, 
    {
      "op": "_mul", 
      "name": "_mul5115", 
      "inputs": [[512, 0, 0], [470, 0, 0]]
    }, 
    {
      "op": "Activation", 
      "name": "activation8525", 
      "attr": {"act_type": "sigmoid"}, 
      "inputs": [[510, 0, 0]]
    }, 
    {
      "op": "Activation", 
      "name": "activation8526", 
      "attr": {"act_type": "tanh"}, 
      "inputs": [[510, 1, 0]]
    }, 
    {
      "op": "_mul", 
      "name": "_mul5116", 
      "inputs": [[514, 0, 0], [515, 0, 0]]
    }, 
    {
      "op": "elemwise_add", 
      "name": "_plus3411", 
      "inputs": [[513, 0, 0], [516, 0, 0]]
    }, 
    {
      "op": "Activation", 
      "name": "activation8529", 
      "attr": {"act_type": "tanh"}, 
      "inputs": [[517, 0, 0]]
    }, 
    {
      "op": "_mul", 
      "name": "_mul5117", 
      "inputs": [[511, 0, 0], [518, 0, 0]]
    }, 
    {
      "op": "Dropout", 
      "name": "dropout1705", 
      "attr": {"p": "0.2"}, 
      "inputs": [[519, 0, 0]]
    }, 
    {
      "op": "FullyConnected", 
      "name": "t10_l2_i2h", 
      "attr": {"num_hidden": "2048"}, 
      "inputs": [[520, 0, 0], [43, 0, 0], [44, 0, 0]]
    }, 
    {
      "op": "FullyConnected", 
      "name": "t10_l2_h2h", 
      "attr": {"num_hidden": "2048"}, 
      "inputs": [[486, 0, 0], [47, 0, 0], [48, 0, 0]]
    }, 
    {
      "op": "elemwise_add", 
      "name": "_plus3412", 
      "inputs": [[521, 0, 0], [522, 0, 0]]
    }, 
    {
      "op": "SliceChannel", 
      "name": "t10_l2_slice", 
      "attr": {"num_outputs": "4"}, 
      "inputs": [[523, 0, 0]]
    }, 
    {
      "op": "Activation", 
      "name": "activation8533", 
      "attr": {"act_type": "sigmoid"}, 
      "inputs": [[524, 3, 0]]
    }, 
    {
      "op": "Activation", 
      "name": "activation8532", 
      "attr": {"act_type": "sigmoid"}, 
      "inputs": [[524, 2, 0]]
    }, 
    {
      "op": "_mul", 
      "name": "_mul5118", 
      "inputs": [[526, 0, 0], [484, 0, 0]]
    }, 
    {
      "op": "Activation", 
      "name": "activation8530", 
      "attr": {"act_type": "sigmoid"}, 
      "inputs": [[524, 0, 0]]
    }, 
    {
      "op": "Activation", 
      "name": "activation8531", 
      "attr": {"act_type": "tanh"}, 
      "inputs": [[524, 1, 0]]
    }, 
    {
      "op": "_mul", 
      "name": "_mul5119", 
      "inputs": [[528, 0, 0], [529, 0, 0]]
    }, 
    {
      "op": "elemwise_add", 
      "name": "_plus3413", 
      "inputs": [[527, 0, 0], [530, 0, 0]]
    }, 
    {
      "op": "Activation", 
      "name": "activation8534", 
      "attr": {"act_type": "tanh"}, 
      "inputs": [[531, 0, 0]]
    }, 
    {
      "op": "_mul", 
      "name": "_mul5120", 
      "inputs": [[525, 0, 0], [532, 0, 0]]
    }, 
    {
      "op": "Dropout", 
      "name": "dropout1706", 
      "attr": {"p": "0.2"}, 
      "inputs": [[533, 0, 0]]
    }, 
    {
      "op": "FullyConnected", 
      "name": "fullyconnected568", 
      "attr": {"num_hidden": "4443"}, 
      "inputs": [[534, 0, 0], [63, 0, 0], [64, 0, 0]]
    }, 
    {
      "op": "null", 
      "name": "label/10", 
      "inputs": []
    }, 
    {
      "op": "SoftmaxOutput", 
      "name": "t10_sm", 
      "inputs": [[535, 0, 0], [536, 0, 0]]
    }, 
    {
      "op": "null", 
      "name": "data/11", 
      "inputs": []
    }, 
    {
      "op": "Embedding", 
      "name": "t11_embed", 
      "attr": {
        "input_dim": "4443", 
        "output_dim": "256"
      }, 
      "inputs": [[538, 0, 0], [1, 0, 0]]
    }, 
    {
      "op": "FullyConnected", 
      "name": "t11_l0_i2h", 
      "attr": {"num_hidden": "2048"}, 
      "inputs": [[539, 0, 0], [3, 0, 0], [4, 0, 0]]
    }, 
    {
      "op": "FullyConnected", 
      "name": "t11_l0_h2h", 
      "attr": {"num_hidden": "2048"}, 
      "inputs": [[505, 0, 0], [7, 0, 0], [8, 0, 0]]
    }, 
    {
      "op": "elemwise_add", 
      "name": "_plus3414", 
      "inputs": [[540, 0, 0], [541, 0, 0]]
    }, 
    {
      "op": "SliceChannel", 
      "name": "t11_l0_slice", 
      "attr": {"num_outputs": "4"}, 
      "inputs": [[542, 0, 0]]
    }, 
    {
      "op": "Activation", 
      "name": "activation8538", 
      "attr": {"act_type": "sigmoid"}, 
      "inputs": [[543, 3, 0]]
    }, 
    {
      "op": "Activation", 
      "name": "activation8537", 
      "attr": {"act_type": "sigmoid"}, 
      "inputs": [[543, 2, 0]]
    }, 
    {
      "op": "_mul", 
      "name": "_mul5121", 
      "inputs": [[545, 0, 0], [503, 0, 0]]
    }, 
    {
      "op": "Activation", 
      "name": "activation8535", 
      "attr": {"act_type": "sigmoid"}, 
      "inputs": [[543, 0, 0]]
    }, 
    {
      "op": "Activation", 
      "name": "activation8536", 
      "attr": {"act_type": "tanh"}, 
      "inputs": [[543, 1, 0]]
    }, 
    {
      "op": "_mul", 
      "name": "_mul5122", 
      "inputs": [[547, 0, 0], [548, 0, 0]]
    }, 
    {
      "op": "elemwise_add", 
      "name": "_plus3415", 
      "inputs": [[546, 0, 0], [549, 0, 0]]
    }, 
    {
      "op": "Activation", 
      "name": "activation8539", 
      "attr": {"act_type": "tanh"}, 
      "inputs": [[550, 0, 0]]
    }, 
    {
      "op": "_mul", 
      "name": "_mul5123", 
      "inputs": [[544, 0, 0], [551, 0, 0]]
    }, 
    {
      "op": "Dropout", 
      "name": "dropout1707", 
      "attr": {"p": "0.2"}, 
      "inputs": [[552, 0, 0]]
    }, 
    {
      "op": "FullyConnected", 
      "name": "t11_l1_i2h", 
      "attr": {"num_hidden": "2048"}, 
      "inputs": [[553, 0, 0], [23, 0, 0], [24, 0, 0]]
    }, 
    {
      "op": "FullyConnected", 
      "name": "t11_l1_h2h", 
      "attr": {"num_hidden": "2048"}, 
      "inputs": [[519, 0, 0], [27, 0, 0], [28, 0, 0]]
    }, 
    {
      "op": "elemwise_add", 
      "name": "_plus3416", 
      "inputs": [[554, 0, 0], [555, 0, 0]]
    }, 
    {
      "op": "SliceChannel", 
      "name": "t11_l1_slice", 
      "attr": {"num_outputs": "4"}, 
      "inputs": [[556, 0, 0]]
    }, 
    {
      "op": "Activation", 
      "name": "activation8543", 
      "attr": {"act_type": "sigmoid"}, 
      "inputs": [[557, 3, 0]]
    }, 
    {
      "op": "Activation", 
      "name": "activation8542", 
      "attr": {"act_type": "sigmoid"}, 
      "inputs": [[557, 2, 0]]
    }, 
    {
      "op": "_mul", 
      "name": "_mul5124", 
      "inputs": [[559, 0, 0], [517, 0, 0]]
    }, 
    {
      "op": "Activation", 
      "name": "activation8540", 
      "attr": {"act_type": "sigmoid"}, 
      "inputs": [[557, 0, 0]]
    }, 
    {
      "op": "Activation", 
      "name": "activation8541", 
      "attr": {"act_type": "tanh"}, 
      "inputs": [[557, 1, 0]]
    }, 
    {
      "op": "_mul", 
      "name": "_mul5125", 
      "inputs": [[561, 0, 0], [562, 0, 0]]
    }, 
    {
      "op": "elemwise_add", 
      "name": "_plus3417", 
      "inputs": [[560, 0, 0], [563, 0, 0]]
    }, 
    {
      "op": "Activation", 
      "name": "activation8544", 
      "attr": {"act_type": "tanh"}, 
      "inputs": [[564, 0, 0]]
    }, 
    {
      "op": "_mul", 
      "name": "_mul5126", 
      "inputs": [[558, 0, 0], [565, 0, 0]]
    }, 
    {
      "op": "Dropout", 
      "name": "dropout1708", 
      "attr": {"p": "0.2"}, 
      "inputs": [[566, 0, 0]]
    }, 
    {
      "op": "FullyConnected", 
      "name": "t11_l2_i2h", 
      "attr": {"num_hidden": "2048"}, 
      "inputs": [[567, 0, 0], [43, 0, 0], [44, 0, 0]]
    }, 
    {
      "op": "FullyConnected", 
      "name": "t11_l2_h2h", 
      "attr": {"num_hidden": "2048"}, 
      "inputs": [[533, 0, 0], [47, 0, 0], [48, 0, 0]]
    }, 
    {
      "op": "elemwise_add", 
      "name": "_plus3418", 
      "inputs": [[568, 0, 0], [569, 0, 0]]
    }, 
    {
      "op": "SliceChannel", 
      "name": "t11_l2_slice", 
      "attr": {"num_outputs": "4"}, 
      "inputs": [[570, 0, 0]]
    }, 
    {
      "op": "Activation", 
      "name": "activation8548", 
      "attr": {"act_type": "sigmoid"}, 
      "inputs": [[571, 3, 0]]
    }, 
    {
      "op": "Activation", 
      "name": "activation8547", 
      "attr": {"act_type": "sigmoid"}, 
      "inputs": [[571, 2, 0]]
    }, 
    {
      "op": "_mul", 
      "name": "_mul5127", 
      "inputs": [[573, 0, 0], [531, 0, 0]]
    }, 
    {
      "op": "Activation", 
      "name": "activation8545", 
      "attr": {"act_type": "sigmoid"}, 
      "inputs": [[571, 0, 0]]
    }, 
    {
      "op": "Activation", 
      "name": "activation8546", 
      "attr": {"act_type": "tanh"}, 
      "inputs": [[571, 1, 0]]
    }, 
    {
      "op": "_mul", 
      "name": "_mul5128", 
      "inputs": [[575, 0, 0], [576, 0, 0]]
    }, 
    {
      "op": "elemwise_add", 
      "name": "_plus3419", 
      "inputs": [[574, 0, 0], [577, 0, 0]]
    }, 
    {
      "op": "Activation", 
      "name": "activation8549", 
      "attr": {"act_type": "tanh"}, 
      "inputs": [[578, 0, 0]]
    }, 
    {
      "op": "_mul", 
      "name": "_mul5129", 
      "inputs": [[572, 0, 0], [579, 0, 0]]
    }, 
    {
      "op": "Dropout", 
      "name": "dropout1709", 
      "attr": {"p": "0.2"}, 
      "inputs": [[580, 0, 0]]
    }, 
    {
      "op": "FullyConnected", 
      "name": "fullyconnected569", 
      "attr": {"num_hidden": "4443"}, 
      "inputs": [[581, 0, 0], [63, 0, 0], [64, 0, 0]]
    }, 
    {
      "op": "null", 
      "name": "label/11", 
      "inputs": []
    }, 
    {
      "op": "SoftmaxOutput", 
      "name": "t11_sm", 
      "inputs": [[582, 0, 0], [583, 0, 0]]
    }, 
    {
      "op": "null", 
      "name": "data/12", 
      "inputs": []
    }, 
    {
      "op": "Embedding", 
      "name": "t12_embed", 
      "attr": {
        "input_dim": "4443", 
        "output_dim": "256"
      }, 
      "inputs": [[585, 0, 0], [1, 0, 0]]
    }, 
    {
      "op": "FullyConnected", 
      "name": "t12_l0_i2h", 
      "attr": {"num_hidden": "2048"}, 
      "inputs": [[586, 0, 0], [3, 0, 0], [4, 0, 0]]
    }, 
    {
      "op": "FullyConnected", 
      "name": "t12_l0_h2h", 
      "attr": {"num_hidden": "2048"}, 
      "inputs": [[552, 0, 0], [7, 0, 0], [8, 0, 0]]
    }, 
    {
      "op": "elemwise_add", 
      "name": "_plus3420", 
      "inputs": [[587, 0, 0], [588, 0, 0]]
    }, 
    {
      "op": "SliceChannel", 
      "name": "t12_l0_slice", 
      "attr": {"num_outputs": "4"}, 
      "inputs": [[589, 0, 0]]
    }, 
    {
      "op": "Activation", 
      "name": "activation8553", 
      "attr": {"act_type": "sigmoid"}, 
      "inputs": [[590, 3, 0]]
    }, 
    {
      "op": "Activation", 
      "name": "activation8552", 
      "attr": {"act_type": "sigmoid"}, 
      "inputs": [[590, 2, 0]]
    }, 
    {
      "op": "_mul", 
      "name": "_mul5130", 
      "inputs": [[592, 0, 0], [550, 0, 0]]
    }, 
    {
      "op": "Activation", 
      "name": "activation8550", 
      "attr": {"act_type": "sigmoid"}, 
      "inputs": [[590, 0, 0]]
    }, 
    {
      "op": "Activation", 
      "name": "activation8551", 
      "attr": {"act_type": "tanh"}, 
      "inputs": [[590, 1, 0]]
    }, 
    {
      "op": "_mul", 
      "name": "_mul5131", 
      "inputs": [[594, 0, 0], [595, 0, 0]]
    }, 
    {
      "op": "elemwise_add", 
      "name": "_plus3421", 
      "inputs": [[593, 0, 0], [596, 0, 0]]
    }, 
    {
      "op": "Activation", 
      "name": "activation8554", 
      "attr": {"act_type": "tanh"}, 
      "inputs": [[597, 0, 0]]
    }, 
    {
      "op": "_mul", 
      "name": "_mul5132", 
      "inputs": [[591, 0, 0], [598, 0, 0]]
    }, 
    {
      "op": "Dropout", 
      "name": "dropout1710", 
      "attr": {"p": "0.2"}, 
      "inputs": [[599, 0, 0]]
    }, 
    {
      "op": "FullyConnected", 
      "name": "t12_l1_i2h", 
      "attr": {"num_hidden": "2048"}, 
      "inputs": [[600, 0, 0], [23, 0, 0], [24, 0, 0]]
    }, 
    {
      "op": "FullyConnected", 
      "name": "t12_l1_h2h", 
      "attr": {"num_hidden": "2048"}, 
      "inputs": [[566, 0, 0], [27, 0, 0], [28, 0, 0]]
    }, 
    {
      "op": "elemwise_add", 
      "name": "_plus3422", 
      "inputs": [[601, 0, 0], [602, 0, 0]]
    }, 
    {
      "op": "SliceChannel", 
      "name": "t12_l1_slice", 
      "attr": {"num_outputs": "4"}, 
      "inputs": [[603, 0, 0]]
    }, 
    {
      "op": "Activation", 
      "name": "activation8558", 
      "attr": {"act_type": "sigmoid"}, 
      "inputs": [[604, 3, 0]]
    }, 
    {
      "op": "Activation", 
      "name": "activation8557", 
      "attr": {"act_type": "sigmoid"}, 
      "inputs": [[604, 2, 0]]
    }, 
    {
      "op": "_mul", 
      "name": "_mul5133", 
      "inputs": [[606, 0, 0], [564, 0, 0]]
    }, 
    {
      "op": "Activation", 
      "name": "activation8555", 
      "attr": {"act_type": "sigmoid"}, 
      "inputs": [[604, 0, 0]]
    }, 
    {
      "op": "Activation", 
      "name": "activation8556", 
      "attr": {"act_type": "tanh"}, 
      "inputs": [[604, 1, 0]]
    }, 
    {
      "op": "_mul", 
      "name": "_mul5134", 
      "inputs": [[608, 0, 0], [609, 0, 0]]
    }, 
    {
      "op": "elemwise_add", 
      "name": "_plus3423", 
      "inputs": [[607, 0, 0], [610, 0, 0]]
    }, 
    {
      "op": "Activation", 
      "name": "activation8559", 
      "attr": {"act_type": "tanh"}, 
      "inputs": [[611, 0, 0]]
    }, 
    {
      "op": "_mul", 
      "name": "_mul5135", 
      "inputs": [[605, 0, 0], [612, 0, 0]]
    }, 
    {
      "op": "Dropout", 
      "name": "dropout1711", 
      "attr": {"p": "0.2"}, 
      "inputs": [[613, 0, 0]]
    }, 
    {
      "op": "FullyConnected", 
      "name": "t12_l2_i2h", 
      "attr": {"num_hidden": "2048"}, 
      "inputs": [[614, 0, 0], [43, 0, 0], [44, 0, 0]]
    }, 
    {
      "op": "FullyConnected", 
      "name": "t12_l2_h2h", 
      "attr": {"num_hidden": "2048"}, 
      "inputs": [[580, 0, 0], [47, 0, 0], [48, 0, 0]]
    }, 
    {
      "op": "elemwise_add", 
      "name": "_plus3424", 
      "inputs": [[615, 0, 0], [616, 0, 0]]
    }, 
    {
      "op": "SliceChannel", 
      "name": "t12_l2_slice", 
      "attr": {"num_outputs": "4"}, 
      "inputs": [[617, 0, 0]]
    }, 
    {
      "op": "Activation", 
      "name": "activation8563", 
      "attr": {"act_type": "sigmoid"}, 
      "inputs": [[618, 3, 0]]
    }, 
    {
      "op": "Activation", 
      "name": "activation8562", 
      "attr": {"act_type": "sigmoid"}, 
      "inputs": [[618, 2, 0]]
    }, 
    {
      "op": "_mul", 
      "name": "_mul5136", 
      "inputs": [[620, 0, 0], [578, 0, 0]]
    }, 
    {
      "op": "Activation", 
      "name": "activation8560", 
      "attr": {"act_type": "sigmoid"}, 
      "inputs": [[618, 0, 0]]
    }, 
    {
      "op": "Activation", 
      "name": "activation8561", 
      "attr": {"act_type": "tanh"}, 
      "inputs": [[618, 1, 0]]
    }, 
    {
      "op": "_mul", 
      "name": "_mul5137", 
      "inputs": [[622, 0, 0], [623, 0, 0]]
    }, 
    {
      "op": "elemwise_add", 
      "name": "_plus3425", 
      "inputs": [[621, 0, 0], [624, 0, 0]]
    }, 
    {
      "op": "Activation", 
      "name": "activation8564", 
      "attr": {"act_type": "tanh"}, 
      "inputs": [[625, 0, 0]]
    }, 
    {
      "op": "_mul", 
      "name": "_mul5138", 
      "inputs": [[619, 0, 0], [626, 0, 0]]
    }, 
    {
      "op": "Dropout", 
      "name": "dropout1712", 
      "attr": {"p": "0.2"}, 
      "inputs": [[627, 0, 0]]
    }, 
    {
      "op": "FullyConnected", 
      "name": "fullyconnected570", 
      "attr": {"num_hidden": "4443"}, 
      "inputs": [[628, 0, 0], [63, 0, 0], [64, 0, 0]]
    }, 
    {
      "op": "null", 
      "name": "label/12", 
      "inputs": []
    }, 
    {
      "op": "SoftmaxOutput", 
      "name": "t12_sm", 
      "inputs": [[629, 0, 0], [630, 0, 0]]
    }, 
    {
      "op": "null", 
      "name": "data/13", 
      "inputs": []
    }, 
    {
      "op": "Embedding", 
      "name": "t13_embed", 
      "attr": {
        "input_dim": "4443", 
        "output_dim": "256"
      }, 
      "inputs": [[632, 0, 0], [1, 0, 0]]
    }, 
    {
      "op": "FullyConnected", 
      "name": "t13_l0_i2h", 
      "attr": {"num_hidden": "2048"}, 
      "inputs": [[633, 0, 0], [3, 0, 0], [4, 0, 0]]
    }, 
    {
      "op": "FullyConnected", 
      "name": "t13_l0_h2h", 
      "attr": {"num_hidden": "2048"}, 
      "inputs": [[599, 0, 0], [7, 0, 0], [8, 0, 0]]
    }, 
    {
      "op": "elemwise_add", 
      "name": "_plus3426", 
      "inputs": [[634, 0, 0], [635, 0, 0]]
    }, 
    {
      "op": "SliceChannel", 
      "name": "t13_l0_slice", 
      "attr": {"num_outputs": "4"}, 
      "inputs": [[636, 0, 0]]
    }, 
    {
      "op": "Activation", 
      "name": "activation8568", 
      "attr": {"act_type": "sigmoid"}, 
      "inputs": [[637, 3, 0]]
    }, 
    {
      "op": "Activation", 
      "name": "activation8567", 
      "attr": {"act_type": "sigmoid"}, 
      "inputs": [[637, 2, 0]]
    }, 
    {
      "op": "_mul", 
      "name": "_mul5139", 
      "inputs": [[639, 0, 0], [597, 0, 0]]
    }, 
    {
      "op": "Activation", 
      "name": "activation8565", 
      "attr": {"act_type": "sigmoid"}, 
      "inputs": [[637, 0, 0]]
    }, 
    {
      "op": "Activation", 
      "name": "activation8566", 
      "attr": {"act_type": "tanh"}, 
      "inputs": [[637, 1, 0]]
    }, 
    {
      "op": "_mul", 
      "name": "_mul5140", 
      "inputs": [[641, 0, 0], [642, 0, 0]]
    }, 
    {
      "op": "elemwise_add", 
      "name": "_plus3427", 
      "inputs": [[640, 0, 0], [643, 0, 0]]
    }, 
    {
      "op": "Activation", 
      "name": "activation8569", 
      "attr": {"act_type": "tanh"}, 
      "inputs": [[644, 0, 0]]
    }, 
    {
      "op": "_mul", 
      "name": "_mul5141", 
      "inputs": [[638, 0, 0], [645, 0, 0]]
    }, 
    {
      "op": "Dropout", 
      "name": "dropout1713", 
      "attr": {"p": "0.2"}, 
      "inputs": [[646, 0, 0]]
    }, 
    {
      "op": "FullyConnected", 
      "name": "t13_l1_i2h", 
      "attr": {"num_hidden": "2048"}, 
      "inputs": [[647, 0, 0], [23, 0, 0], [24, 0, 0]]
    }, 
    {
      "op": "FullyConnected", 
      "name": "t13_l1_h2h", 
      "attr": {"num_hidden": "2048"}, 
      "inputs": [[613, 0, 0], [27, 0, 0], [28, 0, 0]]
    }, 
    {
      "op": "elemwise_add", 
      "name": "_plus3428", 
      "inputs": [[648, 0, 0], [649, 0, 0]]
    }, 
    {
      "op": "SliceChannel", 
      "name": "t13_l1_slice", 
      "attr": {"num_outputs": "4"}, 
      "inputs": [[650, 0, 0]]
    }, 
    {
      "op": "Activation", 
      "name": "activation8573", 
      "attr": {"act_type": "sigmoid"}, 
      "inputs": [[651, 3, 0]]
    }, 
    {
      "op": "Activation", 
      "name": "activation8572", 
      "attr": {"act_type": "sigmoid"}, 
      "inputs": [[651, 2, 0]]
    }, 
    {
      "op": "_mul", 
      "name": "_mul5142", 
      "inputs": [[653, 0, 0], [611, 0, 0]]
    }, 
    {
      "op": "Activation", 
      "name": "activation8570", 
      "attr": {"act_type": "sigmoid"}, 
      "inputs": [[651, 0, 0]]
    }, 
    {
      "op": "Activation", 
      "name": "activation8571", 
      "attr": {"act_type": "tanh"}, 
      "inputs": [[651, 1, 0]]
    }, 
    {
      "op": "_mul", 
      "name": "_mul5143", 
      "inputs": [[655, 0, 0], [656, 0, 0]]
    }, 
    {
      "op": "elemwise_add", 
      "name": "_plus3429", 
      "inputs": [[654, 0, 0], [657, 0, 0]]
    }, 
    {
      "op": "Activation", 
      "name": "activation8574", 
      "attr": {"act_type": "tanh"}, 
      "inputs": [[658, 0, 0]]
    }, 
    {
      "op": "_mul", 
      "name": "_mul5144", 
      "inputs": [[652, 0, 0], [659, 0, 0]]
    }, 
    {
      "op": "Dropout", 
      "name": "dropout1714", 
      "attr": {"p": "0.2"}, 
      "inputs": [[660, 0, 0]]
    }, 
    {
      "op": "FullyConnected", 
      "name": "t13_l2_i2h", 
      "attr": {"num_hidden": "2048"}, 
      "inputs": [[661, 0, 0], [43, 0, 0], [44, 0, 0]]
    }, 
    {
      "op": "FullyConnected", 
      "name": "t13_l2_h2h", 
      "attr": {"num_hidden": "2048"}, 
      "inputs": [[627, 0, 0], [47, 0, 0], [48, 0, 0]]
    }, 
    {
      "op": "elemwise_add", 
      "name": "_plus3430", 
      "inputs": [[662, 0, 0], [663, 0, 0]]
    }, 
    {
      "op": "SliceChannel", 
      "name": "t13_l2_slice", 
      "attr": {"num_outputs": "4"}, 
      "inputs": [[664, 0, 0]]
    }, 
    {
      "op": "Activation", 
      "name": "activation8578", 
      "attr": {"act_type": "sigmoid"}, 
      "inputs": [[665, 3, 0]]
    }, 
    {
      "op": "Activation", 
      "name": "activation8577", 
      "attr": {"act_type": "sigmoid"}, 
      "inputs": [[665, 2, 0]]
    }, 
    {
      "op": "_mul", 
      "name": "_mul5145", 
      "inputs": [[667, 0, 0], [625, 0, 0]]
    }, 
    {
      "op": "Activation", 
      "name": "activation8575", 
      "attr": {"act_type": "sigmoid"}, 
      "inputs": [[665, 0, 0]]
    }, 
    {
      "op": "Activation", 
      "name": "activation8576", 
      "attr": {"act_type": "tanh"}, 
      "inputs": [[665, 1, 0]]
    }, 
    {
      "op": "_mul", 
      "name": "_mul5146", 
      "inputs": [[669, 0, 0], [670, 0, 0]]
    }, 
    {
      "op": "elemwise_add", 
      "name": "_plus3431", 
      "inputs": [[668, 0, 0], [671, 0, 0]]
    }, 
    {
      "op": "Activation", 
      "name": "activation8579", 
      "attr": {"act_type": "tanh"}, 
      "inputs": [[672, 0, 0]]
    }, 
    {
      "op": "_mul", 
      "name": "_mul5147", 
      "inputs": [[666, 0, 0], [673, 0, 0]]
    }, 
    {
      "op": "Dropout", 
      "name": "dropout1715", 
      "attr": {"p": "0.2"}, 
      "inputs": [[674, 0, 0]]
    }, 
    {
      "op": "FullyConnected", 
      "name": "fullyconnected571", 
      "attr": {"num_hidden": "4443"}, 
      "inputs": [[675, 0, 0], [63, 0, 0], [64, 0, 0]]
    }, 
    {
      "op": "null", 
      "name": "label/13", 
      "inputs": []
    }, 
    {
      "op": "SoftmaxOutput", 
      "name": "t13_sm", 
      "inputs": [[676, 0, 0], [677, 0, 0]]
    }, 
    {
      "op": "null", 
      "name": "data/14", 
      "inputs": []
    }, 
    {
      "op": "Embedding", 
      "name": "t14_embed", 
      "attr": {
        "input_dim": "4443", 
        "output_dim": "256"
      }, 
      "inputs": [[679, 0, 0], [1, 0, 0]]
    }, 
    {
      "op": "FullyConnected", 
      "name": "t14_l0_i2h", 
      "attr": {"num_hidden": "2048"}, 
      "inputs": [[680, 0, 0], [3, 0, 0], [4, 0, 0]]
    }, 
    {
      "op": "FullyConnected", 
      "name": "t14_l0_h2h", 
      "attr": {"num_hidden": "2048"}, 
      "inputs": [[646, 0, 0], [7, 0, 0], [8, 0, 0]]
    }, 
    {
      "op": "elemwise_add", 
      "name": "_plus3432", 
      "inputs": [[681, 0, 0], [682, 0, 0]]
    }, 
    {
      "op": "SliceChannel", 
      "name": "t14_l0_slice", 
      "attr": {"num_outputs": "4"}, 
      "inputs": [[683, 0, 0]]
    }, 
    {
      "op": "Activation", 
      "name": "activation8583", 
      "attr": {"act_type": "sigmoid"}, 
      "inputs": [[684, 3, 0]]
    }, 
    {
      "op": "Activation", 
      "name": "activation8582", 
      "attr": {"act_type": "sigmoid"}, 
      "inputs": [[684, 2, 0]]
    }, 
    {
      "op": "_mul", 
      "name": "_mul5148", 
      "inputs": [[686, 0, 0], [644, 0, 0]]
    }, 
    {
      "op": "Activation", 
      "name": "activation8580", 
      "attr": {"act_type": "sigmoid"}, 
      "inputs": [[684, 0, 0]]
    }, 
    {
      "op": "Activation", 
      "name": "activation8581", 
      "attr": {"act_type": "tanh"}, 
      "inputs": [[684, 1, 0]]
    }, 
    {
      "op": "_mul", 
      "name": "_mul5149", 
      "inputs": [[688, 0, 0], [689, 0, 0]]
    }, 
    {
      "op": "elemwise_add", 
      "name": "_plus3433", 
      "inputs": [[687, 0, 0], [690, 0, 0]]
    }, 
    {
      "op": "Activation", 
      "name": "activation8584", 
      "attr": {"act_type": "tanh"}, 
      "inputs": [[691, 0, 0]]
    }, 
    {
      "op": "_mul", 
      "name": "_mul5150", 
      "inputs": [[685, 0, 0], [692, 0, 0]]
    }, 
    {
      "op": "Dropout", 
      "name": "dropout1716", 
      "attr": {"p": "0.2"}, 
      "inputs": [[693, 0, 0]]
    }, 
    {
      "op": "FullyConnected", 
      "name": "t14_l1_i2h", 
      "attr": {"num_hidden": "2048"}, 
      "inputs": [[694, 0, 0], [23, 0, 0], [24, 0, 0]]
    }, 
    {
      "op": "FullyConnected", 
      "name": "t14_l1_h2h", 
      "attr": {"num_hidden": "2048"}, 
      "inputs": [[660, 0, 0], [27, 0, 0], [28, 0, 0]]
    }, 
    {
      "op": "elemwise_add", 
      "name": "_plus3434", 
      "inputs": [[695, 0, 0], [696, 0, 0]]
    }, 
    {
      "op": "SliceChannel", 
      "name": "t14_l1_slice", 
      "attr": {"num_outputs": "4"}, 
      "inputs": [[697, 0, 0]]
    }, 
    {
      "op": "Activation", 
      "name": "activation8588", 
      "attr": {"act_type": "sigmoid"}, 
      "inputs": [[698, 3, 0]]
    }, 
    {
      "op": "Activation", 
      "name": "activation8587", 
      "attr": {"act_type": "sigmoid"}, 
      "inputs": [[698, 2, 0]]
    }, 
    {
      "op": "_mul", 
      "name": "_mul5151", 
      "inputs": [[700, 0, 0], [658, 0, 0]]
    }, 
    {
      "op": "Activation", 
      "name": "activation8585", 
      "attr": {"act_type": "sigmoid"}, 
      "inputs": [[698, 0, 0]]
    }, 
    {
      "op": "Activation", 
      "name": "activation8586", 
      "attr": {"act_type": "tanh"}, 
      "inputs": [[698, 1, 0]]
    }, 
    {
      "op": "_mul", 
      "name": "_mul5152", 
      "inputs": [[702, 0, 0], [703, 0, 0]]
    }, 
    {
      "op": "elemwise_add", 
      "name": "_plus3435", 
      "inputs": [[701, 0, 0], [704, 0, 0]]
    }, 
    {
      "op": "Activation", 
      "name": "activation8589", 
      "attr": {"act_type": "tanh"}, 
      "inputs": [[705, 0, 0]]
    }, 
    {
      "op": "_mul", 
      "name": "_mul5153", 
      "inputs": [[699, 0, 0], [706, 0, 0]]
    }, 
    {
      "op": "Dropout", 
      "name": "dropout1717", 
      "attr": {"p": "0.2"}, 
      "inputs": [[707, 0, 0]]
    }, 
    {
      "op": "FullyConnected", 
      "name": "t14_l2_i2h", 
      "attr": {"num_hidden": "2048"}, 
      "inputs": [[708, 0, 0], [43, 0, 0], [44, 0, 0]]
    }, 
    {
      "op": "FullyConnected", 
      "name": "t14_l2_h2h", 
      "attr": {"num_hidden": "2048"}, 
      "inputs": [[674, 0, 0], [47, 0, 0], [48, 0, 0]]
    }, 
    {
      "op": "elemwise_add", 
      "name": "_plus3436", 
      "inputs": [[709, 0, 0], [710, 0, 0]]
    }, 
    {
      "op": "SliceChannel", 
      "name": "t14_l2_slice", 
      "attr": {"num_outputs": "4"}, 
      "inputs": [[711, 0, 0]]
    }, 
    {
      "op": "Activation", 
      "name": "activation8593", 
      "attr": {"act_type": "sigmoid"}, 
      "inputs": [[712, 3, 0]]
    }, 
    {
      "op": "Activation", 
      "name": "activation8592", 
      "attr": {"act_type": "sigmoid"}, 
      "inputs": [[712, 2, 0]]
    }, 
    {
      "op": "_mul", 
      "name": "_mul5154", 
      "inputs": [[714, 0, 0], [672, 0, 0]]
    }, 
    {
      "op": "Activation", 
      "name": "activation8590", 
      "attr": {"act_type": "sigmoid"}, 
      "inputs": [[712, 0, 0]]
    }, 
    {
      "op": "Activation", 
      "name": "activation8591", 
      "attr": {"act_type": "tanh"}, 
      "inputs": [[712, 1, 0]]
    }, 
    {
      "op": "_mul", 
      "name": "_mul5155", 
      "inputs": [[716, 0, 0], [717, 0, 0]]
    }, 
    {
      "op": "elemwise_add", 
      "name": "_plus3437", 
      "inputs": [[715, 0, 0], [718, 0, 0]]
    }, 
    {
      "op": "Activation", 
      "name": "activation8594", 
      "attr": {"act_type": "tanh"}, 
      "inputs": [[719, 0, 0]]
    }, 
    {
      "op": "_mul", 
      "name": "_mul5156", 
      "inputs": [[713, 0, 0], [720, 0, 0]]
    }, 
    {
      "op": "Dropout", 
      "name": "dropout1718", 
      "attr": {"p": "0.2"}, 
      "inputs": [[721, 0, 0]]
    }, 
    {
      "op": "FullyConnected", 
      "name": "fullyconnected572", 
      "attr": {"num_hidden": "4443"}, 
      "inputs": [[722, 0, 0], [63, 0, 0], [64, 0, 0]]
    }, 
    {
      "op": "null", 
      "name": "label/14", 
      "inputs": []
    }, 
    {
      "op": "SoftmaxOutput", 
      "name": "t14_sm", 
      "inputs": [[723, 0, 0], [724, 0, 0]]
    }, 
    {
      "op": "null", 
      "name": "data/15", 
      "inputs": []
    }, 
    {
      "op": "Embedding", 
      "name": "t15_embed", 
      "attr": {
        "input_dim": "4443", 
        "output_dim": "256"
      }, 
      "inputs": [[726, 0, 0], [1, 0, 0]]
    }, 
    {
      "op": "FullyConnected", 
      "name": "t15_l0_i2h", 
      "attr": {"num_hidden": "2048"}, 
      "inputs": [[727, 0, 0], [3, 0, 0], [4, 0, 0]]
    }, 
    {
      "op": "FullyConnected", 
      "name": "t15_l0_h2h", 
      "attr": {"num_hidden": "2048"}, 
      "inputs": [[693, 0, 0], [7, 0, 0], [8, 0, 0]]
    }, 
    {
      "op": "elemwise_add", 
      "name": "_plus3438", 
      "inputs": [[728, 0, 0], [729, 0, 0]]
    }, 
    {
      "op": "SliceChannel", 
      "name": "t15_l0_slice", 
      "attr": {"num_outputs": "4"}, 
      "inputs": [[730, 0, 0]]
    }, 
    {
      "op": "Activation", 
      "name": "activation8598", 
      "attr": {"act_type": "sigmoid"}, 
      "inputs": [[731, 3, 0]]
    }, 
    {
      "op": "Activation", 
      "name": "activation8597", 
      "attr": {"act_type": "sigmoid"}, 
      "inputs": [[731, 2, 0]]
    }, 
    {
      "op": "_mul", 
      "name": "_mul5157", 
      "inputs": [[733, 0, 0], [691, 0, 0]]
    }, 
    {
      "op": "Activation", 
      "name": "activation8595", 
      "attr": {"act_type": "sigmoid"}, 
      "inputs": [[731, 0, 0]]
    }, 
    {
      "op": "Activation", 
      "name": "activation8596", 
      "attr": {"act_type": "tanh"}, 
      "inputs": [[731, 1, 0]]
    }, 
    {
      "op": "_mul", 
      "name": "_mul5158", 
      "inputs": [[735, 0, 0], [736, 0, 0]]
    }, 
    {
      "op": "elemwise_add", 
      "name": "_plus3439", 
      "inputs": [[734, 0, 0], [737, 0, 0]]
    }, 
    {
      "op": "Activation", 
      "name": "activation8599", 
      "attr": {"act_type": "tanh"}, 
      "inputs": [[738, 0, 0]]
    }, 
    {
      "op": "_mul", 
      "name": "_mul5159", 
      "inputs": [[732, 0, 0], [739, 0, 0]]
    }, 
    {
      "op": "Dropout", 
      "name": "dropout1719", 
      "attr": {"p": "0.2"}, 
      "inputs": [[740, 0, 0]]
    }, 
    {
      "op": "FullyConnected", 
      "name": "t15_l1_i2h", 
      "attr": {"num_hidden": "2048"}, 
      "inputs": [[741, 0, 0], [23, 0, 0], [24, 0, 0]]
    }, 
    {
      "op": "FullyConnected", 
      "name": "t15_l1_h2h", 
      "attr": {"num_hidden": "2048"}, 
      "inputs": [[707, 0, 0], [27, 0, 0], [28, 0, 0]]
    }, 
    {
      "op": "elemwise_add", 
      "name": "_plus3440", 
      "inputs": [[742, 0, 0], [743, 0, 0]]
    }, 
    {
      "op": "SliceChannel", 
      "name": "t15_l1_slice", 
      "attr": {"num_outputs": "4"}, 
      "inputs": [[744, 0, 0]]
    }, 
    {
      "op": "Activation", 
      "name": "activation8603", 
      "attr": {"act_type": "sigmoid"}, 
      "inputs": [[745, 3, 0]]
    }, 
    {
      "op": "Activation", 
      "name": "activation8602", 
      "attr": {"act_type": "sigmoid"}, 
      "inputs": [[745, 2, 0]]
    }, 
    {
      "op": "_mul", 
      "name": "_mul5160", 
      "inputs": [[747, 0, 0], [705, 0, 0]]
    }, 
    {
      "op": "Activation", 
      "name": "activation8600", 
      "attr": {"act_type": "sigmoid"}, 
      "inputs": [[745, 0, 0]]
    }, 
    {
      "op": "Activation", 
      "name": "activation8601", 
      "attr": {"act_type": "tanh"}, 
      "inputs": [[745, 1, 0]]
    }, 
    {
      "op": "_mul", 
      "name": "_mul5161", 
      "inputs": [[749, 0, 0], [750, 0, 0]]
    }, 
    {
      "op": "elemwise_add", 
      "name": "_plus3441", 
      "inputs": [[748, 0, 0], [751, 0, 0]]
    }, 
    {
      "op": "Activation", 
      "name": "activation8604", 
      "attr": {"act_type": "tanh"}, 
      "inputs": [[752, 0, 0]]
    }, 
    {
      "op": "_mul", 
      "name": "_mul5162", 
      "inputs": [[746, 0, 0], [753, 0, 0]]
    }, 
    {
      "op": "Dropout", 
      "name": "dropout1720", 
      "attr": {"p": "0.2"}, 
      "inputs": [[754, 0, 0]]
    }, 
    {
      "op": "FullyConnected", 
      "name": "t15_l2_i2h", 
      "attr": {"num_hidden": "2048"}, 
      "inputs": [[755, 0, 0], [43, 0, 0], [44, 0, 0]]
    }, 
    {
      "op": "FullyConnected", 
      "name": "t15_l2_h2h", 
      "attr": {"num_hidden": "2048"}, 
      "inputs": [[721, 0, 0], [47, 0, 0], [48, 0, 0]]
    }, 
    {
      "op": "elemwise_add", 
      "name": "_plus3442", 
      "inputs": [[756, 0, 0], [757, 0, 0]]
    }, 
    {
      "op": "SliceChannel", 
      "name": "t15_l2_slice", 
      "attr": {"num_outputs": "4"}, 
      "inputs": [[758, 0, 0]]
    }, 
    {
      "op": "Activation", 
      "name": "activation8608", 
      "attr": {"act_type": "sigmoid"}, 
      "inputs": [[759, 3, 0]]
    }, 
    {
      "op": "Activation", 
      "name": "activation8607", 
      "attr": {"act_type": "sigmoid"}, 
      "inputs": [[759, 2, 0]]
    }, 
    {
      "op": "_mul", 
      "name": "_mul5163", 
      "inputs": [[761, 0, 0], [719, 0, 0]]
    }, 
    {
      "op": "Activation", 
      "name": "activation8605", 
      "attr": {"act_type": "sigmoid"}, 
      "inputs": [[759, 0, 0]]
    }, 
    {
      "op": "Activation", 
      "name": "activation8606", 
      "attr": {"act_type": "tanh"}, 
      "inputs": [[759, 1, 0]]
    }, 
    {
      "op": "_mul", 
      "name": "_mul5164", 
      "inputs": [[763, 0, 0], [764, 0, 0]]
    }, 
    {
      "op": "elemwise_add", 
      "name": "_plus3443", 
      "inputs": [[762, 0, 0], [765, 0, 0]]
    }, 
    {
      "op": "Activation", 
      "name": "activation8609", 
      "attr": {"act_type": "tanh"}, 
      "inputs": [[766, 0, 0]]
    }, 
    {
      "op": "_mul", 
      "name": "_mul5165", 
      "inputs": [[760, 0, 0], [767, 0, 0]]
    }, 
    {
      "op": "Dropout", 
      "name": "dropout1721", 
      "attr": {"p": "0.2"}, 
      "inputs": [[768, 0, 0]]
    }, 
    {
      "op": "FullyConnected", 
      "name": "fullyconnected573", 
      "attr": {"num_hidden": "4443"}, 
      "inputs": [[769, 0, 0], [63, 0, 0], [64, 0, 0]]
    }, 
    {
      "op": "null", 
      "name": "label/15", 
      "inputs": []
    }, 
    {
      "op": "SoftmaxOutput", 
      "name": "t15_sm", 
      "inputs": [[770, 0, 0], [771, 0, 0]]
    }, 
    {
      "op": "null", 
      "name": "data/16", 
      "inputs": []
    }, 
    {
      "op": "Embedding", 
      "name": "t16_embed", 
      "attr": {
        "input_dim": "4443", 
        "output_dim": "256"
      }, 
      "inputs": [[773, 0, 0], [1, 0, 0]]
    }, 
    {
      "op": "FullyConnected", 
      "name": "t16_l0_i2h", 
      "attr": {"num_hidden": "2048"}, 
      "inputs": [[774, 0, 0], [3, 0, 0], [4, 0, 0]]
    }, 
    {
      "op": "FullyConnected", 
      "name": "t16_l0_h2h", 
      "attr": {"num_hidden": "2048"}, 
      "inputs": [[740, 0, 0], [7, 0, 0], [8, 0, 0]]
    }, 
    {
      "op": "elemwise_add", 
      "name": "_plus3444", 
      "inputs": [[775, 0, 0], [776, 0, 0]]
    }, 
    {
      "op": "SliceChannel", 
      "name": "t16_l0_slice", 
      "attr": {"num_outputs": "4"}, 
      "inputs": [[777, 0, 0]]
    }, 
    {
      "op": "Activation", 
      "name": "activation8613", 
      "attr": {"act_type": "sigmoid"}, 
      "inputs": [[778, 3, 0]]
    }, 
    {
      "op": "Activation", 
      "name": "activation8612", 
      "attr": {"act_type": "sigmoid"}, 
      "inputs": [[778, 2, 0]]
    }, 
    {
      "op": "_mul", 
      "name": "_mul5166", 
      "inputs": [[780, 0, 0], [738, 0, 0]]
    }, 
    {
      "op": "Activation", 
      "name": "activation8610", 
      "attr": {"act_type": "sigmoid"}, 
      "inputs": [[778, 0, 0]]
    }, 
    {
      "op": "Activation", 
      "name": "activation8611", 
      "attr": {"act_type": "tanh"}, 
      "inputs": [[778, 1, 0]]
    }, 
    {
      "op": "_mul", 
      "name": "_mul5167", 
      "inputs": [[782, 0, 0], [783, 0, 0]]
    }, 
    {
      "op": "elemwise_add", 
      "name": "_plus3445", 
      "inputs": [[781, 0, 0], [784, 0, 0]]
    }, 
    {
      "op": "Activation", 
      "name": "activation8614", 
      "attr": {"act_type": "tanh"}, 
      "inputs": [[785, 0, 0]]
    }, 
    {
      "op": "_mul", 
      "name": "_mul5168", 
      "inputs": [[779, 0, 0], [786, 0, 0]]
    }, 
    {
      "op": "Dropout", 
      "name": "dropout1722", 
      "attr": {"p": "0.2"}, 
      "inputs": [[787, 0, 0]]
    }, 
    {
      "op": "FullyConnected", 
      "name": "t16_l1_i2h", 
      "attr": {"num_hidden": "2048"}, 
      "inputs": [[788, 0, 0], [23, 0, 0], [24, 0, 0]]
    }, 
    {
      "op": "FullyConnected", 
      "name": "t16_l1_h2h", 
      "attr": {"num_hidden": "2048"}, 
      "inputs": [[754, 0, 0], [27, 0, 0], [28, 0, 0]]
    }, 
    {
      "op": "elemwise_add", 
      "name": "_plus3446", 
      "inputs": [[789, 0, 0], [790, 0, 0]]
    }, 
    {
      "op": "SliceChannel", 
      "name": "t16_l1_slice", 
      "attr": {"num_outputs": "4"}, 
      "inputs": [[791, 0, 0]]
    }, 
    {
      "op": "Activation", 
      "name": "activation8618", 
      "attr": {"act_type": "sigmoid"}, 
      "inputs": [[792, 3, 0]]
    }, 
    {
      "op": "Activation", 
      "name": "activation8617", 
      "attr": {"act_type": "sigmoid"}, 
      "inputs": [[792, 2, 0]]
    }, 
    {
      "op": "_mul", 
      "name": "_mul5169", 
      "inputs": [[794, 0, 0], [752, 0, 0]]
    }, 
    {
      "op": "Activation", 
      "name": "activation8615", 
      "attr": {"act_type": "sigmoid"}, 
      "inputs": [[792, 0, 0]]
    }, 
    {
      "op": "Activation", 
      "name": "activation8616", 
      "attr": {"act_type": "tanh"}, 
      "inputs": [[792, 1, 0]]
    }, 
    {
      "op": "_mul", 
      "name": "_mul5170", 
      "inputs": [[796, 0, 0], [797, 0, 0]]
    }, 
    {
      "op": "elemwise_add", 
      "name": "_plus3447", 
      "inputs": [[795, 0, 0], [798, 0, 0]]
    }, 
    {
      "op": "Activation", 
      "name": "activation8619", 
      "attr": {"act_type": "tanh"}, 
      "inputs": [[799, 0, 0]]
    }, 
    {
      "op": "_mul", 
      "name": "_mul5171", 
      "inputs": [[793, 0, 0], [800, 0, 0]]
    }, 
    {
      "op": "Dropout", 
      "name": "dropout1723", 
      "attr": {"p": "0.2"}, 
      "inputs": [[801, 0, 0]]
    }, 
    {
      "op": "FullyConnected", 
      "name": "t16_l2_i2h", 
      "attr": {"num_hidden": "2048"}, 
      "inputs": [[802, 0, 0], [43, 0, 0], [44, 0, 0]]
    }, 
    {
      "op": "FullyConnected", 
      "name": "t16_l2_h2h", 
      "attr": {"num_hidden": "2048"}, 
      "inputs": [[768, 0, 0], [47, 0, 0], [48, 0, 0]]
    }, 
    {
      "op": "elemwise_add", 
      "name": "_plus3448", 
      "inputs": [[803, 0, 0], [804, 0, 0]]
    }, 
    {
      "op": "SliceChannel", 
      "name": "t16_l2_slice", 
      "attr": {"num_outputs": "4"}, 
      "inputs": [[805, 0, 0]]
    }, 
    {
      "op": "Activation", 
      "name": "activation8623", 
      "attr": {"act_type": "sigmoid"}, 
      "inputs": [[806, 3, 0]]
    }, 
    {
      "op": "Activation", 
      "name": "activation8622", 
      "attr": {"act_type": "sigmoid"}, 
      "inputs": [[806, 2, 0]]
    }, 
    {
      "op": "_mul", 
      "name": "_mul5172", 
      "inputs": [[808, 0, 0], [766, 0, 0]]
    }, 
    {
      "op": "Activation", 
      "name": "activation8620", 
      "attr": {"act_type": "sigmoid"}, 
      "inputs": [[806, 0, 0]]
    }, 
    {
      "op": "Activation", 
      "name": "activation8621", 
      "attr": {"act_type": "tanh"}, 
      "inputs": [[806, 1, 0]]
    }, 
    {
      "op": "_mul", 
      "name": "_mul5173", 
      "inputs": [[810, 0, 0], [811, 0, 0]]
    }, 
    {
      "op": "elemwise_add", 
      "name": "_plus3449", 
      "inputs": [[809, 0, 0], [812, 0, 0]]
    }, 
    {
      "op": "Activation", 
      "name": "activation8624", 
      "attr": {"act_type": "tanh"}, 
      "inputs": [[813, 0, 0]]
    }, 
    {
      "op": "_mul", 
      "name": "_mul5174", 
      "inputs": [[807, 0, 0], [814, 0, 0]]
    }, 
    {
      "op": "Dropout", 
      "name": "dropout1724", 
      "attr": {"p": "0.2"}, 
      "inputs": [[815, 0, 0]]
    }, 
    {
      "op": "FullyConnected", 
      "name": "fullyconnected574", 
      "attr": {"num_hidden": "4443"}, 
      "inputs": [[816, 0, 0], [63, 0, 0], [64, 0, 0]]
    }, 
    {
      "op": "null", 
      "name": "label/16", 
      "inputs": []
    }, 
    {
      "op": "SoftmaxOutput", 
      "name": "t16_sm", 
      "inputs": [[817, 0, 0], [818, 0, 0]]
    }, 
    {
      "op": "null", 
      "name": "data/17", 
      "inputs": []
    }, 
    {
      "op": "Embedding", 
      "name": "t17_embed", 
      "attr": {
        "input_dim": "4443", 
        "output_dim": "256"
      }, 
      "inputs": [[820, 0, 0], [1, 0, 0]]
    }, 
    {
      "op": "FullyConnected", 
      "name": "t17_l0_i2h", 
      "attr": {"num_hidden": "2048"}, 
      "inputs": [[821, 0, 0], [3, 0, 0], [4, 0, 0]]
    }, 
    {
      "op": "FullyConnected", 
      "name": "t17_l0_h2h", 
      "attr": {"num_hidden": "2048"}, 
      "inputs": [[787, 0, 0], [7, 0, 0], [8, 0, 0]]
    }, 
    {
      "op": "elemwise_add", 
      "name": "_plus3450", 
      "inputs": [[822, 0, 0], [823, 0, 0]]
    }, 
    {
      "op": "SliceChannel", 
      "name": "t17_l0_slice", 
      "attr": {"num_outputs": "4"}, 
      "inputs": [[824, 0, 0]]
    }, 
    {
      "op": "Activation", 
      "name": "activation8628", 
      "attr": {"act_type": "sigmoid"}, 
      "inputs": [[825, 3, 0]]
    }, 
    {
      "op": "Activation", 
      "name": "activation8627", 
      "attr": {"act_type": "sigmoid"}, 
      "inputs": [[825, 2, 0]]
    }, 
    {
      "op": "_mul", 
      "name": "_mul5175", 
      "inputs": [[827, 0, 0], [785, 0, 0]]
    }, 
    {
      "op": "Activation", 
      "name": "activation8625", 
      "attr": {"act_type": "sigmoid"}, 
      "inputs": [[825, 0, 0]]
    }, 
    {
      "op": "Activation", 
      "name": "activation8626", 
      "attr": {"act_type": "tanh"}, 
      "inputs": [[825, 1, 0]]
    }, 
    {
      "op": "_mul", 
      "name": "_mul5176", 
      "inputs": [[829, 0, 0], [830, 0, 0]]
    }, 
    {
      "op": "elemwise_add", 
      "name": "_plus3451", 
      "inputs": [[828, 0, 0], [831, 0, 0]]
    }, 
    {
      "op": "Activation", 
      "name": "activation8629", 
      "attr": {"act_type": "tanh"}, 
      "inputs": [[832, 0, 0]]
    }, 
    {
      "op": "_mul", 
      "name": "_mul5177", 
      "inputs": [[826, 0, 0], [833, 0, 0]]
    }, 
    {
      "op": "Dropout", 
      "name": "dropout1725", 
      "attr": {"p": "0.2"}, 
      "inputs": [[834, 0, 0]]
    }, 
    {
      "op": "FullyConnected", 
      "name": "t17_l1_i2h", 
      "attr": {"num_hidden": "2048"}, 
      "inputs": [[835, 0, 0], [23, 0, 0], [24, 0, 0]]
    }, 
    {
      "op": "FullyConnected", 
      "name": "t17_l1_h2h", 
      "attr": {"num_hidden": "2048"}, 
      "inputs": [[801, 0, 0], [27, 0, 0], [28, 0, 0]]
    }, 
    {
      "op": "elemwise_add", 
      "name": "_plus3452", 
      "inputs": [[836, 0, 0], [837, 0, 0]]
    }, 
    {
      "op": "SliceChannel", 
      "name": "t17_l1_slice", 
      "attr": {"num_outputs": "4"}, 
      "inputs": [[838, 0, 0]]
    }, 
    {
      "op": "Activation", 
      "name": "activation8633", 
      "attr": {"act_type": "sigmoid"}, 
      "inputs": [[839, 3, 0]]
    }, 
    {
      "op": "Activation", 
      "name": "activation8632", 
      "attr": {"act_type": "sigmoid"}, 
      "inputs": [[839, 2, 0]]
    }, 
    {
      "op": "_mul", 
      "name": "_mul5178", 
      "inputs": [[841, 0, 0], [799, 0, 0]]
    }, 
    {
      "op": "Activation", 
      "name": "activation8630", 
      "attr": {"act_type": "sigmoid"}, 
      "inputs": [[839, 0, 0]]
    }, 
    {
      "op": "Activation", 
      "name": "activation8631", 
      "attr": {"act_type": "tanh"}, 
      "inputs": [[839, 1, 0]]
    }, 
    {
      "op": "_mul", 
      "name": "_mul5179", 
      "inputs": [[843, 0, 0], [844, 0, 0]]
    }, 
    {
      "op": "elemwise_add", 
      "name": "_plus3453", 
      "inputs": [[842, 0, 0], [845, 0, 0]]
    }, 
    {
      "op": "Activation", 
      "name": "activation8634", 
      "attr": {"act_type": "tanh"}, 
      "inputs": [[846, 0, 0]]
    }, 
    {
      "op": "_mul", 
      "name": "_mul5180", 
      "inputs": [[840, 0, 0], [847, 0, 0]]
    }, 
    {
      "op": "Dropout", 
      "name": "dropout1726", 
      "attr": {"p": "0.2"}, 
      "inputs": [[848, 0, 0]]
    }, 
    {
      "op": "FullyConnected", 
      "name": "t17_l2_i2h", 
      "attr": {"num_hidden": "2048"}, 
      "inputs": [[849, 0, 0], [43, 0, 0], [44, 0, 0]]
    }, 
    {
      "op": "FullyConnected", 
      "name": "t17_l2_h2h", 
      "attr": {"num_hidden": "2048"}, 
      "inputs": [[815, 0, 0], [47, 0, 0], [48, 0, 0]]
    }, 
    {
      "op": "elemwise_add", 
      "name": "_plus3454", 
      "inputs": [[850, 0, 0], [851, 0, 0]]
    }, 
    {
      "op": "SliceChannel", 
      "name": "t17_l2_slice", 
      "attr": {"num_outputs": "4"}, 
      "inputs": [[852, 0, 0]]
    }, 
    {
      "op": "Activation", 
      "name": "activation8638", 
      "attr": {"act_type": "sigmoid"}, 
      "inputs": [[853, 3, 0]]
    }, 
    {
      "op": "Activation", 
      "name": "activation8637", 
      "attr": {"act_type": "sigmoid"}, 
      "inputs": [[853, 2, 0]]
    }, 
    {
      "op": "_mul", 
      "name": "_mul5181", 
      "inputs": [[855, 0, 0], [813, 0, 0]]
    }, 
    {
      "op": "Activation", 
      "name": "activation8635", 
      "attr": {"act_type": "sigmoid"}, 
      "inputs": [[853, 0, 0]]
    }, 
    {
      "op": "Activation", 
      "name": "activation8636", 
      "attr": {"act_type": "tanh"}, 
      "inputs": [[853, 1, 0]]
    }, 
    {
      "op": "_mul", 
      "name": "_mul5182", 
      "inputs": [[857, 0, 0], [858, 0, 0]]
    }, 
    {
      "op": "elemwise_add", 
      "name": "_plus3455", 
      "inputs": [[856, 0, 0], [859, 0, 0]]
    }, 
    {
      "op": "Activation", 
      "name": "activation8639", 
      "attr": {"act_type": "tanh"}, 
      "inputs": [[860, 0, 0]]
    }, 
    {
      "op": "_mul", 
      "name": "_mul5183", 
      "inputs": [[854, 0, 0], [861, 0, 0]]
    }, 
    {
      "op": "Dropout", 
      "name": "dropout1727", 
      "attr": {"p": "0.2"}, 
      "inputs": [[862, 0, 0]]
    }, 
    {
      "op": "FullyConnected", 
      "name": "fullyconnected575", 
      "attr": {"num_hidden": "4443"}, 
      "inputs": [[863, 0, 0], [63, 0, 0], [64, 0, 0]]
    }, 
    {
      "op": "null", 
      "name": "label/17", 
      "inputs": []
    }, 
    {
      "op": "SoftmaxOutput", 
      "name": "t17_sm", 
      "inputs": [[864, 0, 0], [865, 0, 0]]
    }, 
    {
      "op": "null", 
      "name": "data/18", 
      "inputs": []
    }, 
    {
      "op": "Embedding", 
      "name": "t18_embed", 
      "attr": {
        "input_dim": "4443", 
        "output_dim": "256"
      }, 
      "inputs": [[867, 0, 0], [1, 0, 0]]
    }, 
    {
      "op": "FullyConnected", 
      "name": "t18_l0_i2h", 
      "attr": {"num_hidden": "2048"}, 
      "inputs": [[868, 0, 0], [3, 0, 0], [4, 0, 0]]
    }, 
    {
      "op": "FullyConnected", 
      "name": "t18_l0_h2h", 
      "attr": {"num_hidden": "2048"}, 
      "inputs": [[834, 0, 0], [7, 0, 0], [8, 0, 0]]
    }, 
    {
      "op": "elemwise_add", 
      "name": "_plus3456", 
      "inputs": [[869, 0, 0], [870, 0, 0]]
    }, 
    {
      "op": "SliceChannel", 
      "name": "t18_l0_slice", 
      "attr": {"num_outputs": "4"}, 
      "inputs": [[871, 0, 0]]
    }, 
    {
      "op": "Activation", 
      "name": "activation8643", 
      "attr": {"act_type": "sigmoid"}, 
      "inputs": [[872, 3, 0]]
    }, 
    {
      "op": "Activation", 
      "name": "activation8642", 
      "attr": {"act_type": "sigmoid"}, 
      "inputs": [[872, 2, 0]]
    }, 
    {
      "op": "_mul", 
      "name": "_mul5184", 
      "inputs": [[874, 0, 0], [832, 0, 0]]
    }, 
    {
      "op": "Activation", 
      "name": "activation8640", 
      "attr": {"act_type": "sigmoid"}, 
      "inputs": [[872, 0, 0]]
    }, 
    {
      "op": "Activation", 
      "name": "activation8641", 
      "attr": {"act_type": "tanh"}, 
      "inputs": [[872, 1, 0]]
    }, 
    {
      "op": "_mul", 
      "name": "_mul5185", 
      "inputs": [[876, 0, 0], [877, 0, 0]]
    }, 
    {
      "op": "elemwise_add", 
      "name": "_plus3457", 
      "inputs": [[875, 0, 0], [878, 0, 0]]
    }, 
    {
      "op": "Activation", 
      "name": "activation8644", 
      "attr": {"act_type": "tanh"}, 
      "inputs": [[879, 0, 0]]
    }, 
    {
      "op": "_mul", 
      "name": "_mul5186", 
      "inputs": [[873, 0, 0], [880, 0, 0]]
    }, 
    {
      "op": "Dropout", 
      "name": "dropout1728", 
      "attr": {"p": "0.2"}, 
      "inputs": [[881, 0, 0]]
    }, 
    {
      "op": "FullyConnected", 
      "name": "t18_l1_i2h", 
      "attr": {"num_hidden": "2048"}, 
      "inputs": [[882, 0, 0], [23, 0, 0], [24, 0, 0]]
    }, 
    {
      "op": "FullyConnected", 
      "name": "t18_l1_h2h", 
      "attr": {"num_hidden": "2048"}, 
      "inputs": [[848, 0, 0], [27, 0, 0], [28, 0, 0]]
    }, 
    {
      "op": "elemwise_add", 
      "name": "_plus3458", 
      "inputs": [[883, 0, 0], [884, 0, 0]]
    }, 
    {
      "op": "SliceChannel", 
      "name": "t18_l1_slice", 
      "attr": {"num_outputs": "4"}, 
      "inputs": [[885, 0, 0]]
    }, 
    {
      "op": "Activation", 
      "name": "activation8648", 
      "attr": {"act_type": "sigmoid"}, 
      "inputs": [[886, 3, 0]]
    }, 
    {
      "op": "Activation", 
      "name": "activation8647", 
      "attr": {"act_type": "sigmoid"}, 
      "inputs": [[886, 2, 0]]
    }, 
    {
      "op": "_mul", 
      "name": "_mul5187", 
      "inputs": [[888, 0, 0], [846, 0, 0]]
    }, 
    {
      "op": "Activation", 
      "name": "activation8645", 
      "attr": {"act_type": "sigmoid"}, 
      "inputs": [[886, 0, 0]]
    }, 
    {
      "op": "Activation", 
      "name": "activation8646", 
      "attr": {"act_type": "tanh"}, 
      "inputs": [[886, 1, 0]]
    }, 
    {
      "op": "_mul", 
      "name": "_mul5188", 
      "inputs": [[890, 0, 0], [891, 0, 0]]
    }, 
    {
      "op": "elemwise_add", 
      "name": "_plus3459", 
      "inputs": [[889, 0, 0], [892, 0, 0]]
    }, 
    {
      "op": "Activation", 
      "name": "activation8649", 
      "attr": {"act_type": "tanh"}, 
      "inputs": [[893, 0, 0]]
    }, 
    {
      "op": "_mul", 
      "name": "_mul5189", 
      "inputs": [[887, 0, 0], [894, 0, 0]]
    }, 
    {
      "op": "Dropout", 
      "name": "dropout1729", 
      "attr": {"p": "0.2"}, 
      "inputs": [[895, 0, 0]]
    }, 
    {
      "op": "FullyConnected", 
      "name": "t18_l2_i2h", 
      "attr": {"num_hidden": "2048"}, 
      "inputs": [[896, 0, 0], [43, 0, 0], [44, 0, 0]]
    }, 
    {
      "op": "FullyConnected", 
      "name": "t18_l2_h2h", 
      "attr": {"num_hidden": "2048"}, 
      "inputs": [[862, 0, 0], [47, 0, 0], [48, 0, 0]]
    }, 
    {
      "op": "elemwise_add", 
      "name": "_plus3460", 
      "inputs": [[897, 0, 0], [898, 0, 0]]
    }, 
    {
      "op": "SliceChannel", 
      "name": "t18_l2_slice", 
      "attr": {"num_outputs": "4"}, 
      "inputs": [[899, 0, 0]]
    }, 
    {
      "op": "Activation", 
      "name": "activation8653", 
      "attr": {"act_type": "sigmoid"}, 
      "inputs": [[900, 3, 0]]
    }, 
    {
      "op": "Activation", 
      "name": "activation8652", 
      "attr": {"act_type": "sigmoid"}, 
      "inputs": [[900, 2, 0]]
    }, 
    {
      "op": "_mul", 
      "name": "_mul5190", 
      "inputs": [[902, 0, 0], [860, 0, 0]]
    }, 
    {
      "op": "Activation", 
      "name": "activation8650", 
      "attr": {"act_type": "sigmoid"}, 
      "inputs": [[900, 0, 0]]
    }, 
    {
      "op": "Activation", 
      "name": "activation8651", 
      "attr": {"act_type": "tanh"}, 
      "inputs": [[900, 1, 0]]
    }, 
    {
      "op": "_mul", 
      "name": "_mul5191", 
      "inputs": [[904, 0, 0], [905, 0, 0]]
    }, 
    {
      "op": "elemwise_add", 
      "name": "_plus3461", 
      "inputs": [[903, 0, 0], [906, 0, 0]]
    }, 
    {
      "op": "Activation", 
      "name": "activation8654", 
      "attr": {"act_type": "tanh"}, 
      "inputs": [[907, 0, 0]]
    }, 
    {
      "op": "_mul", 
      "name": "_mul5192", 
      "inputs": [[901, 0, 0], [908, 0, 0]]
    }, 
    {
      "op": "Dropout", 
      "name": "dropout1730", 
      "attr": {"p": "0.2"}, 
      "inputs": [[909, 0, 0]]
    }, 
    {
      "op": "FullyConnected", 
      "name": "fullyconnected576", 
      "attr": {"num_hidden": "4443"}, 
      "inputs": [[910, 0, 0], [63, 0, 0], [64, 0, 0]]
    }, 
    {
      "op": "null", 
      "name": "label/18", 
      "inputs": []
    }, 
    {
      "op": "SoftmaxOutput", 
      "name": "t18_sm", 
      "inputs": [[911, 0, 0], [912, 0, 0]]
    }, 
    {
      "op": "null", 
      "name": "data/19", 
      "inputs": []
    }, 
    {
      "op": "Embedding", 
      "name": "t19_embed", 
      "attr": {
        "input_dim": "4443", 
        "output_dim": "256"
      }, 
      "inputs": [[914, 0, 0], [1, 0, 0]]
    }, 
    {
      "op": "FullyConnected", 
      "name": "t19_l0_i2h", 
      "attr": {"num_hidden": "2048"}, 
      "inputs": [[915, 0, 0], [3, 0, 0], [4, 0, 0]]
    }, 
    {
      "op": "FullyConnected", 
      "name": "t19_l0_h2h", 
      "attr": {"num_hidden": "2048"}, 
      "inputs": [[881, 0, 0], [7, 0, 0], [8, 0, 0]]
    }, 
    {
      "op": "elemwise_add", 
      "name": "_plus3462", 
      "inputs": [[916, 0, 0], [917, 0, 0]]
    }, 
    {
      "op": "SliceChannel", 
      "name": "t19_l0_slice", 
      "attr": {"num_outputs": "4"}, 
      "inputs": [[918, 0, 0]]
    }, 
    {
      "op": "Activation", 
      "name": "activation8658", 
      "attr": {"act_type": "sigmoid"}, 
      "inputs": [[919, 3, 0]]
    }, 
    {
      "op": "Activation", 
      "name": "activation8657", 
      "attr": {"act_type": "sigmoid"}, 
      "inputs": [[919, 2, 0]]
    }, 
    {
      "op": "_mul", 
      "name": "_mul5193", 
      "inputs": [[921, 0, 0], [879, 0, 0]]
    }, 
    {
      "op": "Activation", 
      "name": "activation8655", 
      "attr": {"act_type": "sigmoid"}, 
      "inputs": [[919, 0, 0]]
    }, 
    {
      "op": "Activation", 
      "name": "activation8656", 
      "attr": {"act_type": "tanh"}, 
      "inputs": [[919, 1, 0]]
    }, 
    {
      "op": "_mul", 
      "name": "_mul5194", 
      "inputs": [[923, 0, 0], [924, 0, 0]]
    }, 
    {
      "op": "elemwise_add", 
      "name": "_plus3463", 
      "inputs": [[922, 0, 0], [925, 0, 0]]
    }, 
    {
      "op": "Activation", 
      "name": "activation8659", 
      "attr": {"act_type": "tanh"}, 
      "inputs": [[926, 0, 0]]
    }, 
    {
      "op": "_mul", 
      "name": "_mul5195", 
      "inputs": [[920, 0, 0], [927, 0, 0]]
    }, 
    {
      "op": "Dropout", 
      "name": "dropout1731", 
      "attr": {"p": "0.2"}, 
      "inputs": [[928, 0, 0]]
    }, 
    {
      "op": "FullyConnected", 
      "name": "t19_l1_i2h", 
      "attr": {"num_hidden": "2048"}, 
      "inputs": [[929, 0, 0], [23, 0, 0], [24, 0, 0]]
    }, 
    {
      "op": "FullyConnected", 
      "name": "t19_l1_h2h", 
      "attr": {"num_hidden": "2048"}, 
      "inputs": [[895, 0, 0], [27, 0, 0], [28, 0, 0]]
    }, 
    {
      "op": "elemwise_add", 
      "name": "_plus3464", 
      "inputs": [[930, 0, 0], [931, 0, 0]]
    }, 
    {
      "op": "SliceChannel", 
      "name": "t19_l1_slice", 
      "attr": {"num_outputs": "4"}, 
      "inputs": [[932, 0, 0]]
    }, 
    {
      "op": "Activation", 
      "name": "activation8663", 
      "attr": {"act_type": "sigmoid"}, 
      "inputs": [[933, 3, 0]]
    }, 
    {
      "op": "Activation", 
      "name": "activation8662", 
      "attr": {"act_type": "sigmoid"}, 
      "inputs": [[933, 2, 0]]
    }, 
    {
      "op": "_mul", 
      "name": "_mul5196", 
      "inputs": [[935, 0, 0], [893, 0, 0]]
    }, 
    {
      "op": "Activation", 
      "name": "activation8660", 
      "attr": {"act_type": "sigmoid"}, 
      "inputs": [[933, 0, 0]]
    }, 
    {
      "op": "Activation", 
      "name": "activation8661", 
      "attr": {"act_type": "tanh"}, 
      "inputs": [[933, 1, 0]]
    }, 
    {
      "op": "_mul", 
      "name": "_mul5197", 
      "inputs": [[937, 0, 0], [938, 0, 0]]
    }, 
    {
      "op": "elemwise_add", 
      "name": "_plus3465", 
      "inputs": [[936, 0, 0], [939, 0, 0]]
    }, 
    {
      "op": "Activation", 
      "name": "activation8664", 
      "attr": {"act_type": "tanh"}, 
      "inputs": [[940, 0, 0]]
    }, 
    {
      "op": "_mul", 
      "name": "_mul5198", 
      "inputs": [[934, 0, 0], [941, 0, 0]]
    }, 
    {
      "op": "Dropout", 
      "name": "dropout1732", 
      "attr": {"p": "0.2"}, 
      "inputs": [[942, 0, 0]]
    }, 
    {
      "op": "FullyConnected", 
      "name": "t19_l2_i2h", 
      "attr": {"num_hidden": "2048"}, 
      "inputs": [[943, 0, 0], [43, 0, 0], [44, 0, 0]]
    }, 
    {
      "op": "FullyConnected", 
      "name": "t19_l2_h2h", 
      "attr": {"num_hidden": "2048"}, 
      "inputs": [[909, 0, 0], [47, 0, 0], [48, 0, 0]]
    }, 
    {
      "op": "elemwise_add", 
      "name": "_plus3466", 
      "inputs": [[944, 0, 0], [945, 0, 0]]
    }, 
    {
      "op": "SliceChannel", 
      "name": "t19_l2_slice", 
      "attr": {"num_outputs": "4"}, 
      "inputs": [[946, 0, 0]]
    }, 
    {
      "op": "Activation", 
      "name": "activation8668", 
      "attr": {"act_type": "sigmoid"}, 
      "inputs": [[947, 3, 0]]
    }, 
    {
      "op": "Activation", 
      "name": "activation8667", 
      "attr": {"act_type": "sigmoid"}, 
      "inputs": [[947, 2, 0]]
    }, 
    {
      "op": "_mul", 
      "name": "_mul5199", 
      "inputs": [[949, 0, 0], [907, 0, 0]]
    }, 
    {
      "op": "Activation", 
      "name": "activation8665", 
      "attr": {"act_type": "sigmoid"}, 
      "inputs": [[947, 0, 0]]
    }, 
    {
      "op": "Activation", 
      "name": "activation8666", 
      "attr": {"act_type": "tanh"}, 
      "inputs": [[947, 1, 0]]
    }, 
    {
      "op": "_mul", 
      "name": "_mul5200", 
      "inputs": [[951, 0, 0], [952, 0, 0]]
    }, 
    {
      "op": "elemwise_add", 
      "name": "_plus3467", 
      "inputs": [[950, 0, 0], [953, 0, 0]]
    }, 
    {
      "op": "Activation", 
      "name": "activation8669", 
      "attr": {"act_type": "tanh"}, 
      "inputs": [[954, 0, 0]]
    }, 
    {
      "op": "_mul", 
      "name": "_mul5201", 
      "inputs": [[948, 0, 0], [955, 0, 0]]
    }, 
    {
      "op": "Dropout", 
      "name": "dropout1733", 
      "attr": {"p": "0.2"}, 
      "inputs": [[956, 0, 0]]
    }, 
    {
      "op": "FullyConnected", 
      "name": "fullyconnected577", 
      "attr": {"num_hidden": "4443"}, 
      "inputs": [[957, 0, 0], [63, 0, 0], [64, 0, 0]]
    }, 
    {
      "op": "null", 
      "name": "label/19", 
      "inputs": []
    }, 
    {
      "op": "SoftmaxOutput", 
      "name": "t19_sm", 
      "inputs": [[958, 0, 0], [959, 0, 0]]
    }, 
    {
      "op": "null", 
      "name": "data/20", 
      "inputs": []
    }, 
    {
      "op": "Embedding", 
      "name": "t20_embed", 
      "attr": {
        "input_dim": "4443", 
        "output_dim": "256"
      }, 
      "inputs": [[961, 0, 0], [1, 0, 0]]
    }, 
    {
      "op": "FullyConnected", 
      "name": "t20_l0_i2h", 
      "attr": {"num_hidden": "2048"}, 
      "inputs": [[962, 0, 0], [3, 0, 0], [4, 0, 0]]
    }, 
    {
      "op": "FullyConnected", 
      "name": "t20_l0_h2h", 
      "attr": {"num_hidden": "2048"}, 
      "inputs": [[928, 0, 0], [7, 0, 0], [8, 0, 0]]
    }, 
    {
      "op": "elemwise_add", 
      "name": "_plus3468", 
      "inputs": [[963, 0, 0], [964, 0, 0]]
    }, 
    {
      "op": "SliceChannel", 
      "name": "t20_l0_slice", 
      "attr": {"num_outputs": "4"}, 
      "inputs": [[965, 0, 0]]
    }, 
    {
      "op": "Activation", 
      "name": "activation8673", 
      "attr": {"act_type": "sigmoid"}, 
      "inputs": [[966, 3, 0]]
    }, 
    {
      "op": "Activation", 
      "name": "activation8672", 
      "attr": {"act_type": "sigmoid"}, 
      "inputs": [[966, 2, 0]]
    }, 
    {
      "op": "_mul", 
      "name": "_mul5202", 
      "inputs": [[968, 0, 0], [926, 0, 0]]
    }, 
    {
      "op": "Activation", 
      "name": "activation8670", 
      "attr": {"act_type": "sigmoid"}, 
      "inputs": [[966, 0, 0]]
    }, 
    {
      "op": "Activation", 
      "name": "activation8671", 
      "attr": {"act_type": "tanh"}, 
      "inputs": [[966, 1, 0]]
    }, 
    {
      "op": "_mul", 
      "name": "_mul5203", 
      "inputs": [[970, 0, 0], [971, 0, 0]]
    }, 
    {
      "op": "elemwise_add", 
      "name": "_plus3469", 
      "inputs": [[969, 0, 0], [972, 0, 0]]
    }, 
    {
      "op": "Activation", 
      "name": "activation8674", 
      "attr": {"act_type": "tanh"}, 
      "inputs": [[973, 0, 0]]
    }, 
    {
      "op": "_mul", 
      "name": "_mul5204", 
      "inputs": [[967, 0, 0], [974, 0, 0]]
    }, 
    {
      "op": "Dropout", 
      "name": "dropout1734", 
      "attr": {"p": "0.2"}, 
      "inputs": [[975, 0, 0]]
    }, 
    {
      "op": "FullyConnected", 
      "name": "t20_l1_i2h", 
      "attr": {"num_hidden": "2048"}, 
      "inputs": [[976, 0, 0], [23, 0, 0], [24, 0, 0]]
    }, 
    {
      "op": "FullyConnected", 
      "name": "t20_l1_h2h", 
      "attr": {"num_hidden": "2048"}, 
      "inputs": [[942, 0, 0], [27, 0, 0], [28, 0, 0]]
    }, 
    {
      "op": "elemwise_add", 
      "name": "_plus3470", 
      "inputs": [[977, 0, 0], [978, 0, 0]]
    }, 
    {
      "op": "SliceChannel", 
      "name": "t20_l1_slice", 
      "attr": {"num_outputs": "4"}, 
      "inputs": [[979, 0, 0]]
    }, 
    {
      "op": "Activation", 
      "name": "activation8678", 
      "attr": {"act_type": "sigmoid"}, 
      "inputs": [[980, 3, 0]]
    }, 
    {
      "op": "Activation", 
      "name": "activation8677", 
      "attr": {"act_type": "sigmoid"}, 
      "inputs": [[980, 2, 0]]
    }, 
    {
      "op": "_mul", 
      "name": "_mul5205", 
      "inputs": [[982, 0, 0], [940, 0, 0]]
    }, 
    {
      "op": "Activation", 
      "name": "activation8675", 
      "attr": {"act_type": "sigmoid"}, 
      "inputs": [[980, 0, 0]]
    }, 
    {
      "op": "Activation", 
      "name": "activation8676", 
      "attr": {"act_type": "tanh"}, 
      "inputs": [[980, 1, 0]]
    }, 
    {
      "op": "_mul", 
      "name": "_mul5206", 
      "inputs": [[984, 0, 0], [985, 0, 0]]
    }, 
    {
      "op": "elemwise_add", 
      "name": "_plus3471", 
      "inputs": [[983, 0, 0], [986, 0, 0]]
    }, 
    {
      "op": "Activation", 
      "name": "activation8679", 
      "attr": {"act_type": "tanh"}, 
      "inputs": [[987, 0, 0]]
    }, 
    {
      "op": "_mul", 
      "name": "_mul5207", 
      "inputs": [[981, 0, 0], [988, 0, 0]]
    }, 
    {
      "op": "Dropout", 
      "name": "dropout1735", 
      "attr": {"p": "0.2"}, 
      "inputs": [[989, 0, 0]]
    }, 
    {
      "op": "FullyConnected", 
      "name": "t20_l2_i2h", 
      "attr": {"num_hidden": "2048"}, 
      "inputs": [[990, 0, 0], [43, 0, 0], [44, 0, 0]]
    }, 
    {
      "op": "FullyConnected", 
      "name": "t20_l2_h2h", 
      "attr": {"num_hidden": "2048"}, 
      "inputs": [[956, 0, 0], [47, 0, 0], [48, 0, 0]]
    }, 
    {
      "op": "elemwise_add", 
      "name": "_plus3472", 
      "inputs": [[991, 0, 0], [992, 0, 0]]
    }, 
    {
      "op": "SliceChannel", 
      "name": "t20_l2_slice", 
      "attr": {"num_outputs": "4"}, 
      "inputs": [[993, 0, 0]]
    }, 
    {
      "op": "Activation", 
      "name": "activation8683", 
      "attr": {"act_type": "sigmoid"}, 
      "inputs": [[994, 3, 0]]
    }, 
    {
      "op": "Activation", 
      "name": "activation8682", 
      "attr": {"act_type": "sigmoid"}, 
      "inputs": [[994, 2, 0]]
    }, 
    {
      "op": "_mul", 
      "name": "_mul5208", 
      "inputs": [[996, 0, 0], [954, 0, 0]]
    }, 
    {
      "op": "Activation", 
      "name": "activation8680", 
      "attr": {"act_type": "sigmoid"}, 
      "inputs": [[994, 0, 0]]
    }, 
    {
      "op": "Activation", 
      "name": "activation8681", 
      "attr": {"act_type": "tanh"}, 
      "inputs": [[994, 1, 0]]
    }, 
    {
      "op": "_mul", 
      "name": "_mul5209", 
      "inputs": [[998, 0, 0], [999, 0, 0]]
    }, 
    {
      "op": "elemwise_add", 
      "name": "_plus3473", 
      "inputs": [[997, 0, 0], [1000, 0, 0]]
    }, 
    {
      "op": "Activation", 
      "name": "activation8684", 
      "attr": {"act_type": "tanh"}, 
      "inputs": [[1001, 0, 0]]
    }, 
    {
      "op": "_mul", 
      "name": "_mul5210", 
      "inputs": [[995, 0, 0], [1002, 0, 0]]
    }, 
    {
      "op": "Dropout", 
      "name": "dropout1736", 
      "attr": {"p": "0.2"}, 
      "inputs": [[1003, 0, 0]]
    }, 
    {
      "op": "FullyConnected", 
      "name": "fullyconnected578", 
      "attr": {"num_hidden": "4443"}, 
      "inputs": [[1004, 0, 0], [63, 0, 0], [64, 0, 0]]
    }, 
    {
      "op": "null", 
      "name": "label/20", 
      "inputs": []
    }, 
    {
      "op": "SoftmaxOutput", 
      "name": "t20_sm", 
      "inputs": [[1005, 0, 0], [1006, 0, 0]]
    }, 
    {
      "op": "null", 
      "name": "data/21", 
      "inputs": []
    }, 
    {
      "op": "Embedding", 
      "name": "t21_embed", 
      "attr": {
        "input_dim": "4443", 
        "output_dim": "256"
      }, 
      "inputs": [[1008, 0, 0], [1, 0, 0]]
    }, 
    {
      "op": "FullyConnected", 
      "name": "t21_l0_i2h", 
      "attr": {"num_hidden": "2048"}, 
      "inputs": [[1009, 0, 0], [3, 0, 0], [4, 0, 0]]
    }, 
    {
      "op": "FullyConnected", 
      "name": "t21_l0_h2h", 
      "attr": {"num_hidden": "2048"}, 
      "inputs": [[975, 0, 0], [7, 0, 0], [8, 0, 0]]
    }, 
    {
      "op": "elemwise_add", 
      "name": "_plus3474", 
      "inputs": [[1010, 0, 0], [1011, 0, 0]]
    }, 
    {
      "op": "SliceChannel", 
      "name": "t21_l0_slice", 
      "attr": {"num_outputs": "4"}, 
      "inputs": [[1012, 0, 0]]
    }, 
    {
      "op": "Activation", 
      "name": "activation8688", 
      "attr": {"act_type": "sigmoid"}, 
      "inputs": [[1013, 3, 0]]
    }, 
    {
      "op": "Activation", 
      "name": "activation8687", 
      "attr": {"act_type": "sigmoid"}, 
      "inputs": [[1013, 2, 0]]
    }, 
    {
      "op": "_mul", 
      "name": "_mul5211", 
      "inputs": [[1015, 0, 0], [973, 0, 0]]
    }, 
    {
      "op": "Activation", 
      "name": "activation8685", 
      "attr": {"act_type": "sigmoid"}, 
      "inputs": [[1013, 0, 0]]
    }, 
    {
      "op": "Activation", 
      "name": "activation8686", 
      "attr": {"act_type": "tanh"}, 
      "inputs": [[1013, 1, 0]]
    }, 
    {
      "op": "_mul", 
      "name": "_mul5212", 
      "inputs": [[1017, 0, 0], [1018, 0, 0]]
    }, 
    {
      "op": "elemwise_add", 
      "name": "_plus3475", 
      "inputs": [[1016, 0, 0], [1019, 0, 0]]
    }, 
    {
      "op": "Activation", 
      "name": "activation8689", 
      "attr": {"act_type": "tanh"}, 
      "inputs": [[1020, 0, 0]]
    }, 
    {
      "op": "_mul", 
      "name": "_mul5213", 
      "inputs": [[1014, 0, 0], [1021, 0, 0]]
    }, 
    {
      "op": "Dropout", 
      "name": "dropout1737", 
      "attr": {"p": "0.2"}, 
      "inputs": [[1022, 0, 0]]
    }, 
    {
      "op": "FullyConnected", 
      "name": "t21_l1_i2h", 
      "attr": {"num_hidden": "2048"}, 
      "inputs": [[1023, 0, 0], [23, 0, 0], [24, 0, 0]]
    }, 
    {
      "op": "FullyConnected", 
      "name": "t21_l1_h2h", 
      "attr": {"num_hidden": "2048"}, 
      "inputs": [[989, 0, 0], [27, 0, 0], [28, 0, 0]]
    }, 
    {
      "op": "elemwise_add", 
      "name": "_plus3476", 
      "inputs": [[1024, 0, 0], [1025, 0, 0]]
    }, 
    {
      "op": "SliceChannel", 
      "name": "t21_l1_slice", 
      "attr": {"num_outputs": "4"}, 
      "inputs": [[1026, 0, 0]]
    }, 
    {
      "op": "Activation", 
      "name": "activation8693", 
      "attr": {"act_type": "sigmoid"}, 
      "inputs": [[1027, 3, 0]]
    }, 
    {
      "op": "Activation", 
      "name": "activation8692", 
      "attr": {"act_type": "sigmoid"}, 
      "inputs": [[1027, 2, 0]]
    }, 
    {
      "op": "_mul", 
      "name": "_mul5214", 
      "inputs": [[1029, 0, 0], [987, 0, 0]]
    }, 
    {
      "op": "Activation", 
      "name": "activation8690", 
      "attr": {"act_type": "sigmoid"}, 
      "inputs": [[1027, 0, 0]]
    }, 
    {
      "op": "Activation", 
      "name": "activation8691", 
      "attr": {"act_type": "tanh"}, 
      "inputs": [[1027, 1, 0]]
    }, 
    {
      "op": "_mul", 
      "name": "_mul5215", 
      "inputs": [[1031, 0, 0], [1032, 0, 0]]
    }, 
    {
      "op": "elemwise_add", 
      "name": "_plus3477", 
      "inputs": [[1030, 0, 0], [1033, 0, 0]]
    }, 
    {
      "op": "Activation", 
      "name": "activation8694", 
      "attr": {"act_type": "tanh"}, 
      "inputs": [[1034, 0, 0]]
    }, 
    {
      "op": "_mul", 
      "name": "_mul5216", 
      "inputs": [[1028, 0, 0], [1035, 0, 0]]
    }, 
    {
      "op": "Dropout", 
      "name": "dropout1738", 
      "attr": {"p": "0.2"}, 
      "inputs": [[1036, 0, 0]]
    }, 
    {
      "op": "FullyConnected", 
      "name": "t21_l2_i2h", 
      "attr": {"num_hidden": "2048"}, 
      "inputs": [[1037, 0, 0], [43, 0, 0], [44, 0, 0]]
    }, 
    {
      "op": "FullyConnected", 
      "name": "t21_l2_h2h", 
      "attr": {"num_hidden": "2048"}, 
      "inputs": [[1003, 0, 0], [47, 0, 0], [48, 0, 0]]
    }, 
    {
      "op": "elemwise_add", 
      "name": "_plus3478", 
      "inputs": [[1038, 0, 0], [1039, 0, 0]]
    }, 
    {
      "op": "SliceChannel", 
      "name": "t21_l2_slice", 
      "attr": {"num_outputs": "4"}, 
      "inputs": [[1040, 0, 0]]
    }, 
    {
      "op": "Activation", 
      "name": "activation8698", 
      "attr": {"act_type": "sigmoid"}, 
      "inputs": [[1041, 3, 0]]
    }, 
    {
      "op": "Activation", 
      "name": "activation8697", 
      "attr": {"act_type": "sigmoid"}, 
      "inputs": [[1041, 2, 0]]
    }, 
    {
      "op": "_mul", 
      "name": "_mul5217", 
      "inputs": [[1043, 0, 0], [1001, 0, 0]]
    }, 
    {
      "op": "Activation", 
      "name": "activation8695", 
      "attr": {"act_type": "sigmoid"}, 
      "inputs": [[1041, 0, 0]]
    }, 
    {
      "op": "Activation", 
      "name": "activation8696", 
      "attr": {"act_type": "tanh"}, 
      "inputs": [[1041, 1, 0]]
    }, 
    {
      "op": "_mul", 
      "name": "_mul5218", 
      "inputs": [[1045, 0, 0], [1046, 0, 0]]
    }, 
    {
      "op": "elemwise_add", 
      "name": "_plus3479", 
      "inputs": [[1044, 0, 0], [1047, 0, 0]]
    }, 
    {
      "op": "Activation", 
      "name": "activation8699", 
      "attr": {"act_type": "tanh"}, 
      "inputs": [[1048, 0, 0]]
    }, 
    {
      "op": "_mul", 
      "name": "_mul5219", 
      "inputs": [[1042, 0, 0], [1049, 0, 0]]
    }, 
    {
      "op": "Dropout", 
      "name": "dropout1739", 
      "attr": {"p": "0.2"}, 
      "inputs": [[1050, 0, 0]]
    }, 
    {
      "op": "FullyConnected", 
      "name": "fullyconnected579", 
      "attr": {"num_hidden": "4443"}, 
      "inputs": [[1051, 0, 0], [63, 0, 0], [64, 0, 0]]
    }, 
    {
      "op": "null", 
      "name": "label/21", 
      "inputs": []
    }, 
    {
      "op": "SoftmaxOutput", 
      "name": "t21_sm", 
      "inputs": [[1052, 0, 0], [1053, 0, 0]]
    }, 
    {
      "op": "null", 
      "name": "data/22", 
      "inputs": []
    }, 
    {
      "op": "Embedding", 
      "name": "t22_embed", 
      "attr": {
        "input_dim": "4443", 
        "output_dim": "256"
      }, 
      "inputs": [[1055, 0, 0], [1, 0, 0]]
    }, 
    {
      "op": "FullyConnected", 
      "name": "t22_l0_i2h", 
      "attr": {"num_hidden": "2048"}, 
      "inputs": [[1056, 0, 0], [3, 0, 0], [4, 0, 0]]
    }, 
    {
      "op": "FullyConnected", 
      "name": "t22_l0_h2h", 
      "attr": {"num_hidden": "2048"}, 
      "inputs": [[1022, 0, 0], [7, 0, 0], [8, 0, 0]]
    }, 
    {
      "op": "elemwise_add", 
      "name": "_plus3480", 
      "inputs": [[1057, 0, 0], [1058, 0, 0]]
    }, 
    {
      "op": "SliceChannel", 
      "name": "t22_l0_slice", 
      "attr": {"num_outputs": "4"}, 
      "inputs": [[1059, 0, 0]]
    }, 
    {
      "op": "Activation", 
      "name": "activation8703", 
      "attr": {"act_type": "sigmoid"}, 
      "inputs": [[1060, 3, 0]]
    }, 
    {
      "op": "Activation", 
      "name": "activation8702", 
      "attr": {"act_type": "sigmoid"}, 
      "inputs": [[1060, 2, 0]]
    }, 
    {
      "op": "_mul", 
      "name": "_mul5220", 
      "inputs": [[1062, 0, 0], [1020, 0, 0]]
    }, 
    {
      "op": "Activation", 
      "name": "activation8700", 
      "attr": {"act_type": "sigmoid"}, 
      "inputs": [[1060, 0, 0]]
    }, 
    {
      "op": "Activation", 
      "name": "activation8701", 
      "attr": {"act_type": "tanh"}, 
      "inputs": [[1060, 1, 0]]
    }, 
    {
      "op": "_mul", 
      "name": "_mul5221", 
      "inputs": [[1064, 0, 0], [1065, 0, 0]]
    }, 
    {
      "op": "elemwise_add", 
      "name": "_plus3481", 
      "inputs": [[1063, 0, 0], [1066, 0, 0]]
    }, 
    {
      "op": "Activation", 
      "name": "activation8704", 
      "attr": {"act_type": "tanh"}, 
      "inputs": [[1067, 0, 0]]
    }, 
    {
      "op": "_mul", 
      "name": "_mul5222", 
      "inputs": [[1061, 0, 0], [1068, 0, 0]]
    }, 
    {
      "op": "Dropout", 
      "name": "dropout1740", 
      "attr": {"p": "0.2"}, 
      "inputs": [[1069, 0, 0]]
    }, 
    {
      "op": "FullyConnected", 
      "name": "t22_l1_i2h", 
      "attr": {"num_hidden": "2048"}, 
      "inputs": [[1070, 0, 0], [23, 0, 0], [24, 0, 0]]
    }, 
    {
      "op": "FullyConnected", 
      "name": "t22_l1_h2h", 
      "attr": {"num_hidden": "2048"}, 
      "inputs": [[1036, 0, 0], [27, 0, 0], [28, 0, 0]]
    }, 
    {
      "op": "elemwise_add", 
      "name": "_plus3482", 
      "inputs": [[1071, 0, 0], [1072, 0, 0]]
    }, 
    {
      "op": "SliceChannel", 
      "name": "t22_l1_slice", 
      "attr": {"num_outputs": "4"}, 
      "inputs": [[1073, 0, 0]]
    }, 
    {
      "op": "Activation", 
      "name": "activation8708", 
      "attr": {"act_type": "sigmoid"}, 
      "inputs": [[1074, 3, 0]]
    }, 
    {
      "op": "Activation", 
      "name": "activation8707", 
      "attr": {"act_type": "sigmoid"}, 
      "inputs": [[1074, 2, 0]]
    }, 
    {
      "op": "_mul", 
      "name": "_mul5223", 
      "inputs": [[1076, 0, 0], [1034, 0, 0]]
    }, 
    {
      "op": "Activation", 
      "name": "activation8705", 
      "attr": {"act_type": "sigmoid"}, 
      "inputs": [[1074, 0, 0]]
    }, 
    {
      "op": "Activation", 
      "name": "activation8706", 
      "attr": {"act_type": "tanh"}, 
      "inputs": [[1074, 1, 0]]
    }, 
    {
      "op": "_mul", 
      "name": "_mul5224", 
      "inputs": [[1078, 0, 0], [1079, 0, 0]]
    }, 
    {
      "op": "elemwise_add", 
      "name": "_plus3483", 
      "inputs": [[1077, 0, 0], [1080, 0, 0]]
    }, 
    {
      "op": "Activation", 
      "name": "activation8709", 
      "attr": {"act_type": "tanh"}, 
      "inputs": [[1081, 0, 0]]
    }, 
    {
      "op": "_mul", 
      "name": "_mul5225", 
      "inputs": [[1075, 0, 0], [1082, 0, 0]]
    }, 
    {
      "op": "Dropout", 
      "name": "dropout1741", 
      "attr": {"p": "0.2"}, 
      "inputs": [[1083, 0, 0]]
    }, 
    {
      "op": "FullyConnected", 
      "name": "t22_l2_i2h", 
      "attr": {"num_hidden": "2048"}, 
      "inputs": [[1084, 0, 0], [43, 0, 0], [44, 0, 0]]
    }, 
    {
      "op": "FullyConnected", 
      "name": "t22_l2_h2h", 
      "attr": {"num_hidden": "2048"}, 
      "inputs": [[1050, 0, 0], [47, 0, 0], [48, 0, 0]]
    }, 
    {
      "op": "elemwise_add", 
      "name": "_plus3484", 
      "inputs": [[1085, 0, 0], [1086, 0, 0]]
    }, 
    {
      "op": "SliceChannel", 
      "name": "t22_l2_slice", 
      "attr": {"num_outputs": "4"}, 
      "inputs": [[1087, 0, 0]]
    }, 
    {
      "op": "Activation", 
      "name": "activation8713", 
      "attr": {"act_type": "sigmoid"}, 
      "inputs": [[1088, 3, 0]]
    }, 
    {
      "op": "Activation", 
      "name": "activation8712", 
      "attr": {"act_type": "sigmoid"}, 
      "inputs": [[1088, 2, 0]]
    }, 
    {
      "op": "_mul", 
      "name": "_mul5226", 
      "inputs": [[1090, 0, 0], [1048, 0, 0]]
    }, 
    {
      "op": "Activation", 
      "name": "activation8710", 
      "attr": {"act_type": "sigmoid"}, 
      "inputs": [[1088, 0, 0]]
    }, 
    {
      "op": "Activation", 
      "name": "activation8711", 
      "attr": {"act_type": "tanh"}, 
      "inputs": [[1088, 1, 0]]
    }, 
    {
      "op": "_mul", 
      "name": "_mul5227", 
      "inputs": [[1092, 0, 0], [1093, 0, 0]]
    }, 
    {
      "op": "elemwise_add", 
      "name": "_plus3485", 
      "inputs": [[1091, 0, 0], [1094, 0, 0]]
    }, 
    {
      "op": "Activation", 
      "name": "activation8714", 
      "attr": {"act_type": "tanh"}, 
      "inputs": [[1095, 0, 0]]
    }, 
    {
      "op": "_mul", 
      "name": "_mul5228", 
      "inputs": [[1089, 0, 0], [1096, 0, 0]]
    }, 
    {
      "op": "Dropout", 
      "name": "dropout1742", 
      "attr": {"p": "0.2"}, 
      "inputs": [[1097, 0, 0]]
    }, 
    {
      "op": "FullyConnected", 
      "name": "fullyconnected580", 
      "attr": {"num_hidden": "4443"}, 
      "inputs": [[1098, 0, 0], [63, 0, 0], [64, 0, 0]]
    }, 
    {
      "op": "null", 
      "name": "label/22", 
      "inputs": []
    }, 
    {
      "op": "SoftmaxOutput", 
      "name": "t22_sm", 
      "inputs": [[1099, 0, 0], [1100, 0, 0]]
    }, 
    {
      "op": "null", 
      "name": "data/23", 
      "inputs": []
    }, 
    {
      "op": "Embedding", 
      "name": "t23_embed", 
      "attr": {
        "input_dim": "4443", 
        "output_dim": "256"
      }, 
      "inputs": [[1102, 0, 0], [1, 0, 0]]
    }, 
    {
      "op": "FullyConnected", 
      "name": "t23_l0_i2h", 
      "attr": {"num_hidden": "2048"}, 
      "inputs": [[1103, 0, 0], [3, 0, 0], [4, 0, 0]]
    }, 
    {
      "op": "FullyConnected", 
      "name": "t23_l0_h2h", 
      "attr": {"num_hidden": "2048"}, 
      "inputs": [[1069, 0, 0], [7, 0, 0], [8, 0, 0]]
    }, 
    {
      "op": "elemwise_add", 
      "name": "_plus3486", 
      "inputs": [[1104, 0, 0], [1105, 0, 0]]
    }, 
    {
      "op": "SliceChannel", 
      "name": "t23_l0_slice", 
      "attr": {"num_outputs": "4"}, 
      "inputs": [[1106, 0, 0]]
    }, 
    {
      "op": "Activation", 
      "name": "activation8718", 
      "attr": {"act_type": "sigmoid"}, 
      "inputs": [[1107, 3, 0]]
    }, 
    {
      "op": "Activation", 
      "name": "activation8717", 
      "attr": {"act_type": "sigmoid"}, 
      "inputs": [[1107, 2, 0]]
    }, 
    {
      "op": "_mul", 
      "name": "_mul5229", 
      "inputs": [[1109, 0, 0], [1067, 0, 0]]
    }, 
    {
      "op": "Activation", 
      "name": "activation8715", 
      "attr": {"act_type": "sigmoid"}, 
      "inputs": [[1107, 0, 0]]
    }, 
    {
      "op": "Activation", 
      "name": "activation8716", 
      "attr": {"act_type": "tanh"}, 
      "inputs": [[1107, 1, 0]]
    }, 
    {
      "op": "_mul", 
      "name": "_mul5230", 
      "inputs": [[1111, 0, 0], [1112, 0, 0]]
    }, 
    {
      "op": "elemwise_add", 
      "name": "_plus3487", 
      "inputs": [[1110, 0, 0], [1113, 0, 0]]
    }, 
    {
      "op": "Activation", 
      "name": "activation8719", 
      "attr": {"act_type": "tanh"}, 
      "inputs": [[1114, 0, 0]]
    }, 
    {
      "op": "_mul", 
      "name": "_mul5231", 
      "inputs": [[1108, 0, 0], [1115, 0, 0]]
    }, 
    {
      "op": "Dropout", 
      "name": "dropout1743", 
      "attr": {"p": "0.2"}, 
      "inputs": [[1116, 0, 0]]
    }, 
    {
      "op": "FullyConnected", 
      "name": "t23_l1_i2h", 
      "attr": {"num_hidden": "2048"}, 
      "inputs": [[1117, 0, 0], [23, 0, 0], [24, 0, 0]]
    }, 
    {
      "op": "FullyConnected", 
      "name": "t23_l1_h2h", 
      "attr": {"num_hidden": "2048"}, 
      "inputs": [[1083, 0, 0], [27, 0, 0], [28, 0, 0]]
    }, 
    {
      "op": "elemwise_add", 
      "name": "_plus3488", 
      "inputs": [[1118, 0, 0], [1119, 0, 0]]
    }, 
    {
      "op": "SliceChannel", 
      "name": "t23_l1_slice", 
      "attr": {"num_outputs": "4"}, 
      "inputs": [[1120, 0, 0]]
    }, 
    {
      "op": "Activation", 
      "name": "activation8723", 
      "attr": {"act_type": "sigmoid"}, 
      "inputs": [[1121, 3, 0]]
    }, 
    {
      "op": "Activation", 
      "name": "activation8722", 
      "attr": {"act_type": "sigmoid"}, 
      "inputs": [[1121, 2, 0]]
    }, 
    {
      "op": "_mul", 
      "name": "_mul5232", 
      "inputs": [[1123, 0, 0], [1081, 0, 0]]
    }, 
    {
      "op": "Activation", 
      "name": "activation8720", 
      "attr": {"act_type": "sigmoid"}, 
      "inputs": [[1121, 0, 0]]
    }, 
    {
      "op": "Activation", 
      "name": "activation8721", 
      "attr": {"act_type": "tanh"}, 
      "inputs": [[1121, 1, 0]]
    }, 
    {
      "op": "_mul", 
      "name": "_mul5233", 
      "inputs": [[1125, 0, 0], [1126, 0, 0]]
    }, 
    {
      "op": "elemwise_add", 
      "name": "_plus3489", 
      "inputs": [[1124, 0, 0], [1127, 0, 0]]
    }, 
    {
      "op": "Activation", 
      "name": "activation8724", 
      "attr": {"act_type": "tanh"}, 
      "inputs": [[1128, 0, 0]]
    }, 
    {
      "op": "_mul", 
      "name": "_mul5234", 
      "inputs": [[1122, 0, 0], [1129, 0, 0]]
    }, 
    {
      "op": "Dropout", 
      "name": "dropout1744", 
      "attr": {"p": "0.2"}, 
      "inputs": [[1130, 0, 0]]
    }, 
    {
      "op": "FullyConnected", 
      "name": "t23_l2_i2h", 
      "attr": {"num_hidden": "2048"}, 
      "inputs": [[1131, 0, 0], [43, 0, 0], [44, 0, 0]]
    }, 
    {
      "op": "FullyConnected", 
      "name": "t23_l2_h2h", 
      "attr": {"num_hidden": "2048"}, 
      "inputs": [[1097, 0, 0], [47, 0, 0], [48, 0, 0]]
    }, 
    {
      "op": "elemwise_add", 
      "name": "_plus3490", 
      "inputs": [[1132, 0, 0], [1133, 0, 0]]
    }, 
    {
      "op": "SliceChannel", 
      "name": "t23_l2_slice", 
      "attr": {"num_outputs": "4"}, 
      "inputs": [[1134, 0, 0]]
    }, 
    {
      "op": "Activation", 
      "name": "activation8728", 
      "attr": {"act_type": "sigmoid"}, 
      "inputs": [[1135, 3, 0]]
    }, 
    {
      "op": "Activation", 
      "name": "activation8727", 
      "attr": {"act_type": "sigmoid"}, 
      "inputs": [[1135, 2, 0]]
    }, 
    {
      "op": "_mul", 
      "name": "_mul5235", 
      "inputs": [[1137, 0, 0], [1095, 0, 0]]
    }, 
    {
      "op": "Activation", 
      "name": "activation8725", 
      "attr": {"act_type": "sigmoid"}, 
      "inputs": [[1135, 0, 0]]
    }, 
    {
      "op": "Activation", 
      "name": "activation8726", 
      "attr": {"act_type": "tanh"}, 
      "inputs": [[1135, 1, 0]]
    }, 
    {
      "op": "_mul", 
      "name": "_mul5236", 
      "inputs": [[1139, 0, 0], [1140, 0, 0]]
    }, 
    {
…
    3558, 
    3559, 
    3560, 
    3561, 
    3562, 
    3563, 
    3564, 
    3565, 
    3566, 
    3570, 
    3571, 
    3572, 
    3573, 
    3574, 
    3575, 
    3576, 
    3577, 
    3578, 
    3579, 
    3581, 
    3582, 
    3583, 
    3584, 
    3588, 
    3589, 
    3590, 
    3591, 
    3592, 
    3593, 
    3594, 
    3595, 
    3596, 
    3597, 
    3599, 
    3600, 
    3601, 
    3602, 
    3606, 
    3607, 
    3608, 
    3609, 
    3610, 
    3611, 
    3612, 
    3613, 
    3614, 
    3615, 
    3617, 
    3618, 
    3619, 
    3620, 
    3621, 
    3622, 
    3623, 
    3624, 
    3625, 
    3629, 
    3630, 
    3631, 
    3632, 
    3633, 
    3634, 
    3635, 
    3636, 
    3637, 
    3638, 
    3640, 
    3641, 
    3642, 
    3643, 
    3647, 
    3648, 
    3649, 
    3650, 
    3651, 
    3652, 
    3653, 
    3654, 
    3655, 
    3656, 
    3658, 
    3659, 
    3660, 
    3661, 
    3665, 
    3666, 
    3667, 
    3668, 
    3669, 
    3670, 
    3671, 
    3672, 
    3673, 
    3674, 
    3676, 
    3677, 
    3678, 
    3679, 
    3680, 
    3681, 
    3682, 
    3683, 
    3684, 
    3688, 
    3689, 
    3690, 
    3691, 
    3692, 
    3693, 
    3694, 
    3695, 
    3696, 
    3697, 
    3699, 
    3700, 
    3701, 
    3702, 
    3706, 
    3707, 
    3708, 
    3709, 
    3710, 
    3711, 
    3712, 
    3713, 
    3714, 
    3715, 
    3717, 
    3718, 
    3719, 
    3720, 
    3724, 
    3725, 
    3726, 
    3727, 
    3728, 
    3729, 
    3730, 
    3731, 
    3732, 
    3733, 
    3735, 
    3736, 
    3737, 
    3738, 
    3739, 
    3740, 
    3741, 
    3742, 
    3743, 
    3747, 
    3748, 
    3749, 
    3750, 
    3751, 
    3752, 
    3753, 
    3754, 
    3755, 
    3756, 
    3758, 
    3759, 
    3760, 
    3761, 
    3765, 
    3766, 
    3767, 
    3768, 
    3769, 
    3770, 
    3771, 
    3772, 
    3773, 
    3774, 
    3776, 
    3777, 
    3778, 
    3779, 
    3783, 
    3784, 
    3785, 
    3786, 
    3787, 
    3788, 
    3789, 
    3790, 
    3791, 
    3792, 
    3794, 
    3795, 
    3796, 
    3797, 
    3798, 
    3799, 
    3800, 
    3801, 
    3802, 
    3806, 
    3807, 
    3808, 
    3809, 
    3810, 
    3811, 
    3812, 
    3813, 
    3814, 
    3815, 
    3817, 
    3818, 
    3819, 
    3820, 
    3824, 
    3825, 
    3826, 
    3827, 
    3828, 
    3829, 
    3830, 
    3831, 
    3832, 
    3833, 
    3835, 
    3836, 
    3837, 
    3838, 
    3842, 
    3843, 
    3844, 
    3845, 
    3846, 
    3847, 
    3848, 
    3849, 
    3850, 
    3851, 
    3853, 
    3854, 
    3855, 
    3856, 
    3857, 
    3858, 
    3859, 
    3860, 
    3861, 
    3865, 
    3866, 
    3867, 
    3868, 
    3869, 
    3870, 
    3871, 
    3872, 
    3873, 
    3874, 
    3876, 
    3877, 
    3878, 
    3879, 
    3883, 
    3884, 
    3885, 
    3886, 
    3887, 
    3888, 
    3889, 
    3890, 
    3891, 
    3892, 
    3894, 
    3895, 
    3896, 
    3897, 
    3901, 
    3902, 
    3903, 
    3904, 
    3905, 
    3906, 
    3907, 
    3908, 
    3909, 
    3910, 
    3912, 
    3913, 
    3914, 
    3915, 
    3916, 
    3917, 
    3918, 
    3919, 
    3920, 
    3924, 
    3925, 
    3926, 
    3927, 
    3928, 
    3929, 
    3930, 
    3931, 
    3932, 
    3933, 
    3935, 
    3936, 
    3937, 
    3938, 
    3942, 
    3943, 
    3944, 
    3945, 
    3946, 
    3947, 
    3948, 
    3949, 
    3950, 
    3951, 
    3953, 
    3954, 
    3955, 
    3956, 
    3960, 
    3961, 
    3962, 
    3963, 
    3964, 
    3965, 
    3966, 
    3967, 
    3968, 
    3969, 
    3971, 
    3972, 
    3973, 
    3974, 
    3975, 
    3976, 
    3977, 
    3978, 
    3979, 
    3983, 
    3984, 
    3985, 
    3986, 
    3987, 
    3988, 
    3989, 
    3990, 
    3991, 
    3992, 
    3994, 
    3995, 
    3996, 
    3997, 
    4001, 
    4002, 
    4003, 
    4004, 
    4005, 
    4006, 
    4007, 
    4008, 
    4009, 
    4010, 
    4012, 
    4013, 
    4014, 
    4015, 
    4019, 
    4020, 
    4021, 
    4022, 
    4023, 
    4024, 
    4025, 
    4026, 
    4027, 
    4028, 
    4030, 
    4031, 
    4032, 
    4033, 
    4034, 
    4035, 
    4036, 
    4037, 
    4038, 
    4042, 
    4043, 
    4044, 
    4045, 
    4046, 
    4047, 
    4048, 
    4049, 
    4050, 
    4051, 
    4053, 
    4054, 
    4055, 
    4056, 
    4060, 
    4061, 
    4062, 
    4063, 
    4064, 
    4065, 
    4066, 
    4067, 
    4068, 
    4069, 
    4071, 
    4072, 
    4073, 
    4074, 
    4078, 
    4079, 
    4080, 
    4081, 
    4082, 
    4083, 
    4084, 
    4085, 
    4086, 
    4087, 
    4089, 
    4090, 
    4091, 
    4092, 
    4093, 
    4094, 
    4095, 
    4096, 
    4097, 
    4101, 
    4102, 
    4103, 
    4104, 
    4105, 
    4106, 
    4107, 
    4108, 
    4109, 
    4110, 
    4112, 
    4113, 
    4114, 
    4115, 
    4119, 
    4120, 
    4121, 
    4122, 
    4123, 
    4124, 
    4125, 
    4126, 
    4127, 
    4128, 
    4130, 
    4131, 
    4132, 
    4133, 
    4137, 
    4138, 
    4139, 
    4140, 
    4141, 
    4142, 
    4143, 
    4144, 
    4145, 
    4146, 
    4148, 
    4149, 
    4150, 
    4151, 
    4152, 
    4153, 
    4154, 
    4155, 
    4156, 
    4160, 
    4161, 
    4162, 
    4163, 
    4164, 
    4165, 
    4166, 
    4167, 
    4168, 
    4169, 
    4171, 
    4172, 
    4173, 
    4174, 
    4178, 
    4179, 
    4180, 
    4181, 
    4182, 
    4183, 
    4184, 
    4185, 
    4186, 
    4187, 
    4189, 
    4190, 
    4191, 
    4192, 
    4196, 
    4197, 
    4198, 
    4199, 
    4200, 
    4201, 
    4202, 
    4203, 
    4204, 
    4205, 
    4207, 
    4208, 
    4209, 
    4210, 
    4211, 
    4212, 
    4213, 
    4214, 
    4215, 
    4219, 
    4220, 
    4221, 
    4222, 
    4223, 
    4224, 
    4225, 
    4226, 
    4227, 
    4228, 
    4230, 
    4231, 
    4232, 
    4233, 
    4237, 
    4238, 
    4239, 
    4240, 
    4241, 
    4242, 
    4243, 
    4244, 
    4245, 
    4246, 
    4248, 
    4249, 
    4250, 
    4251, 
    4255, 
    4256, 
    4257, 
    4258, 
    4259, 
    4260, 
    4261, 
    4262, 
    4263, 
    4264, 
    4266, 
    4267, 
    4268, 
    4269, 
    4270, 
    4271, 
    4272, 
    4273, 
    4274, 
    4278, 
    4279, 
    4280, 
    4281, 
    4282, 
    4283, 
    4284, 
    4285, 
    4286, 
    4287, 
    4289, 
    4290, 
    4291, 
    4292, 
    4296, 
    4297, 
    4298, 
    4299, 
    4300, 
    4301, 
    4302, 
    4303, 
    4304, 
    4305, 
    4307, 
    4308, 
    4309, 
    4310, 
    4314, 
    4315, 
    4316, 
    4317, 
    4318, 
    4319, 
    4320, 
    4321, 
    4322, 
    4323, 
    4325, 
    4326, 
    4327, 
    4328, 
    4329, 
    4330, 
    4331, 
    4332, 
    4333, 
    4337, 
    4338, 
    4339, 
    4340, 
    4341, 
    4342, 
    4343, 
    4344, 
    4345, 
    4346, 
    4348, 
    4349, 
    4350, 
    4351, 
    4355, 
    4356, 
    4357, 
    4358, 
    4359, 
    4360, 
    4361, 
    4362, 
    4363, 
    4364, 
    4366, 
    4367, 
    4368, 
    4369, 
    4373, 
    4374, 
    4375, 
    4376, 
    4377, 
    4378, 
    4379, 
    4380, 
    4381, 
    4382, 
    4384, 
    4385, 
    4386, 
    4387, 
    4388, 
    4389, 
    4390, 
    4391, 
    4392, 
    4396, 
    4397, 
    4398, 
    4399, 
    4400, 
    4401, 
    4402, 
    4403, 
    4404, 
    4405, 
    4407, 
    4408, 
    4409, 
    4410, 
    4414, 
    4415, 
    4416, 
    4417, 
    4418, 
    4419, 
    4420, 
    4421, 
    4422, 
    4423, 
    4425, 
    4426, 
    4427, 
    4428, 
    4432, 
    4433, 
    4434, 
    4435, 
    4436, 
    4437, 
    4438, 
    4439, 
    4440, 
    4441, 
    4443, 
    4444, 
    4445, 
    4446, 
    4447, 
    4448, 
    4449, 
    4450, 
    4451, 
    4455, 
    4456, 
    4457, 
    4458, 
    4459, 
    4460, 
    4461, 
    4462, 
    4463, 
    4464, 
    4466, 
    4467, 
    4468, 
    4469, 
    4473, 
    4474, 
    4475, 
    4476, 
    4477, 
    4478, 
    4479, 
    4480, 
    4481, 
    4482, 
    4484, 
    4485, 
    4486, 
    4487, 
    4491, 
    4492, 
    4493, 
    4494, 
    4495, 
    4496, 
    4497, 
    4498, 
    4499, 
    4500, 
    4502, 
    4503, 
    4504, 
    4505, 
    4506, 
    4507, 
    4508, 
    4509, 
    4510, 
    4514, 
    4515, 
    4516, 
    4517, 
    4518, 
    4519, 
    4520, 
    4521, 
    4522, 
    4523, 
    4525, 
    4526, 
    4527, 
    4528, 
    4532, 
    4533, 
    4534, 
    4535, 
    4536, 
    4537, 
    4538, 
    4539, 
    4540, 
    4541, 
    4543, 
    4544, 
    4545, 
    4546, 
    4550, 
    4551, 
    4552, 
    4553, 
    4554, 
    4555, 
    4556, 
    4557, 
    4558, 
    4559, 
    4561, 
    4562, 
    4563, 
    4564, 
    4565, 
    4566, 
    4567, 
    4568, 
    4569, 
    4573, 
    4574, 
    4575, 
    4576, 
    4577, 
    4578, 
    4579, 
    4580, 
    4581, 
    4582, 
    4584, 
    4585, 
    4586, 
    4587, 
    4591, 
    4592, 
    4593, 
    4594, 
    4595, 
    4596, 
    4597, 
    4598, 
    4599, 
    4600, 
    4602, 
    4603, 
    4604, 
    4605, 
    4609, 
    4610, 
    4611, 
    4612, 
    4613, 
    4614, 
    4615, 
    4616, 
    4617, 
    4618, 
    4620, 
    4621, 
    4622, 
    4623, 
    4624, 
    4625, 
    4626, 
    4627, 
    4628, 
    4632, 
    4633, 
    4634, 
    4635, 
    4636, 
    4637, 
    4638, 
    4639, 
    4640, 
    4641, 
    4643, 
    4644, 
    4645, 
    4646, 
    4650, 
    4651, 
    4652, 
    4653, 
    4654, 
    4655, 
    4656, 
    4657, 
    4658, 
    4659, 
    4661, 
    4662, 
    4663, 
    4664, 
    4668, 
    4669, 
    4670, 
    4671, 
    4672, 
    4673, 
    4674, 
    4675, 
    4676, 
    4677, 
    4679, 
    4680, 
    4681, 
    4682, 
    4683, 
    4684, 
    4685, 
    4686, 
    4687, 
    4691, 
    4692, 
    4693, 
    4694, 
    4695, 
    4696, 
    4697, 
    4698, 
    4699, 
    4700, 
    4702, 
    4703, 
    4704, 
    4705, 
    4709, 
    4710, 
    4711, 
    4712, 
    4713, 
    4714, 
    4715, 
    4716, 
    4717, 
    4718, 
    4720, 
    4721, 
    4722, 
    4723, 
    4727, 
    4728, 
    4729, 
    4730, 
    4731, 
    4732, 
    4733, 
    4734, 
    4735, 
    4736, 
    4738, 
    4739, 
    4740, 
    4741, 
    4742, 
    4743, 
    4744, 
    4745, 
    4746, 
    4750, 
    4751, 
    4752, 
    4753, 
    4754, 
    4755, 
    4756, 
    4757, 
    4758, 
    4759, 
    4761, 
    4762, 
    4763, 
    4764, 
    4768, 
    4769, 
    4770, 
    4771, 
    4772, 
    4773, 
    4774, 
    4775, 
    4776, 
    4777, 
    4779, 
    4780, 
    4781, 
    4782, 
    4786, 
    4787, 
    4788, 
    4789, 
    4790, 
    4791, 
    4792, 
    4793, 
    4794, 
    4795, 
    4797, 
    4798, 
    4799, 
    4800, 
    4801, 
    4802, 
    4803, 
    4804, 
    4805, 
    4809, 
    4810, 
    4811, 
    4812, 
    4813, 
    4814, 
    4815, 
    4816, 
    4817, 
    4818, 
    4820, 
    4821, 
    4822, 
    4823, 
    4827, 
    4828, 
    4829, 
    4830, 
    4831, 
    4832, 
    4833, 
    4834, 
    4835, 
    4836, 
    4838, 
    4839, 
    4840, 
    4841, 
    4845, 
    4846, 
    4847, 
    4848, 
    4849, 
    4850, 
    4851, 
    4852, 
    4853, 
    4854, 
    4856, 
    4857, 
    4858, 
    4859, 
    4860, 
    4861, 
    4862, 
    4863, 
    4864, 
    4868, 
    4869, 
    4870, 
    4871, 
    4872, 
    4873, 
    4874, 
    4875, 
    4876, 
    4877, 
    4879, 
    4880, 
    4881, 
    4882, 
    4886, 
    4887, 
    4888, 
    4889, 
    4890, 
    4891, 
    4892, 
    4893, 
    4894, 
    4895, 
    4897, 
    4898, 
    4899, 
    4900, 
    4904, 
    4905, 
    4906, 
    4907, 
    4908, 
    4909, 
    4910, 
    4911, 
    4912, 
    4913, 
    4915, 
    4916, 
    4917, 
    4918, 
    4919, 
    4920, 
    4921, 
    4922, 
    4923, 
    4927, 
    4928, 
    4929, 
    4930, 
    4931, 
    4932, 
    4933, 
    4934, 
    4935, 
    4936, 
    4938, 
    4939, 
    4940, 
    4941, 
    4945, 
    4946, 
    4947, 
    4948, 
    4949, 
    4950, 
    4951, 
    4952, 
    4953, 
    4954, 
    4956, 
    4957, 
    4958, 
    4959, 
    4963, 
    4964, 
    4965, 
    4966, 
    4967, 
    4968, 
    4969, 
    4970, 
    4971, 
    4972, 
    4974, 
    4975, 
    4976, 
    4977, 
    4978, 
    4979, 
    4980, 
    4981, 
    4982, 
    4986, 
    4987, 
    4988, 
    4989, 
    4990, 
    4991, 
    4992, 
    4993, 
    4994, 
    4995, 
    4997, 
    4998, 
    4999, 
    5000, 
    5004, 
    5005, 
    5006, 
    5007, 
    5008, 
    5009, 
    5010, 
    5011, 
    5012, 
    5013, 
    5015, 
    5016, 
    5017, 
    5018, 
    5022, 
    5023, 
    5024, 
    5025, 
    5026, 
    5027, 
    5028, 
    5029, 
    5030, 
    5031, 
    5033, 
    5034, 
    5035, 
    5036, 
    5037, 
    5038, 
    5039, 
    5040, 
    5041, 
    5045, 
    5046, 
    5047, 
    5048, 
    5049, 
    5050, 
    5051, 
    5052, 
    5053, 
    5054, 
    5056, 
    5057, 
    5058, 
    5059, 
    5063, 
    5064, 
    5065, 
    5066, 
    5067, 
    5068, 
    5069, 
    5070, 
    5071, 
    5072, 
    5074, 
    5075, 
    5076, 
    5077, 
    5081, 
    5082, 
    5083, 
    5084, 
    5085, 
    5086, 
    5087, 
    5088, 
    5089, 
    5090, 
    5092, 
    5093, 
    5094, 
    5095, 
    5096, 
    5097, 
    5098, 
    5099, 
    5100, 
    5104, 
    5105, 
    5106, 
    5107, 
    5108, 
    5109, 
    5110, 
    5111, 
    5112, 
    5113, 
    5115, 
    5116, 
    5117, 
    5118, 
    5122, 
    5123, 
    5124, 
    5125, 
    5126, 
    5127, 
    5128, 
    5129, 
    5130, 
    5131, 
    5133, 
    5134, 
    5135, 
    5136, 
    5140, 
    5141, 
    5142, 
    5143, 
    5144, 
    5145, 
    5146, 
    5147, 
    5148, 
    5149, 
    5151, 
    5152, 
    5153, 
    5154, 
    5155, 
    5156, 
    5157, 
    5158, 
    5159, 
    5163, 
    5164, 
    5165, 
    5166, 
    5167, 
    5168, 
    5169, 
    5170, 
    5171, 
    5172, 
    5174, 
    5175, 
    5176, 
    5177, 
    5181, 
    5182, 
    5183, 
    5184, 
    5185, 
    5186, 
    5187, 
    5188, 
    5189, 
    5190, 
    5192, 
    5193, 
    5194, 
    5195, 
    5199, 
    5200, 
    5201, 
    5202, 
    5203, 
    5204, 
    5205, 
    5206, 
    5207, 
    5208, 
    5210, 
    5211, 
    5212, 
    5213, 
    5214, 
    5215, 
    5216, 
    5217, 
    5218, 
    5222, 
    5223, 
    5224, 
    5225, 
    5226, 
    5227, 
    5228, 
    5229, 
    5230, 
    5231, 
    5233, 
    5234, 
    5235, 
    5236, 
    5240, 
    5241, 
    5242, 
    5243, 
    5244, 
    5245, 
    5246, 
    5247, 
    5248, 
    5249, 
    5251, 
    5252, 
    5253, 
    5254, 
    5258, 
    5259, 
    5260, 
    5261, 
    5262, 
    5263, 
    5264, 
    5265, 
    5266, 
    5267, 
    5269, 
    5270, 
    5271, 
    5272, 
    5273, 
    5274, 
    5275, 
    5276, 
    5277, 
    5281, 
    5282, 
    5283, 
    5284, 
    5285, 
    5286, 
    5287, 
    5288, 
    5289, 
    5290, 
    5292, 
    5293, 
    5294, 
    5295, 
    5299, 
    5300, 
    5301, 
    5302, 
    5303, 
    5304, 
    5305, 
    5306, 
    5307, 
    5308, 
    5310, 
    5311, 
    5312, 
    5313, 
    5317, 
    5318, 
    5319, 
    5320, 
    5321, 
    5322, 
    5323, 
    5324, 
    5325, 
    5326, 
    5328, 
    5329, 
    5330, 
    5331, 
    5332, 
    5333, 
    5334, 
    5335, 
    5336, 
    5340, 
    5341, 
    5342, 
    5343, 
    5344, 
    5345, 
    5346, 
    5347, 
    5348, 
    5349, 
    5351, 
    5352, 
    5353, 
    5354, 
    5358, 
    5359, 
    5360, 
    5361, 
    5362, 
    5363, 
    5364, 
    5365, 
    5366, 
    5367, 
    5369, 
    5370, 
    5371, 
    5372, 
    5376, 
    5377, 
    5378, 
    5379, 
    5380, 
    5381, 
    5382, 
    5383, 
    5384, 
    5385, 
    5387, 
    5388, 
    5389, 
    5390, 
    5391, 
    5392, 
    5393, 
    5394, 
    5395, 
    5399, 
    5400, 
    5401, 
    5402, 
    5403, 
    5404, 
    5405, 
    5406, 
    5407, 
    5408, 
    5410, 
    5411, 
    5412, 
    5413, 
    5417, 
    5418, 
    5419, 
    5420, 
    5421, 
    5422, 
    5423, 
    5424, 
    5425, 
    5426, 
    5428, 
    5429, 
    5430, 
    5431, 
    5435, 
    5436, 
    5437, 
    5438, 
    5439, 
    5440, 
    5441, 
    5442, 
    5443, 
    5444, 
    5446, 
    5447, 
    5448, 
    5449, 
    5450, 
    5451, 
    5452, 
    5453, 
    5454, 
    5458, 
    5459, 
    5460, 
    5461, 
    5462, 
    5463, 
    5464, 
    5465, 
    5466, 
    5467, 
    5469, 
    5470, 
    5471, 
    5472, 
    5476, 
    5477, 
    5478, 
    5479, 
    5480, 
    5481, 
    5482, 
    5483, 
    5484, 
    5485, 
    5487, 
    5488, 
    5489, 
    5490, 
    5494, 
    5495, 
    5496, 
    5497, 
    5498, 
    5499, 
    5500, 
    5501, 
    5502, 
    5503, 
    5505, 
    5506, 
    5507, 
    5508, 
    5509, 
    5510, 
    5511, 
    5512, 
    5513, 
    5517, 
    5518, 
    5519, 
    5520, 
    5521, 
    5522, 
    5523, 
    5524, 
    5525, 
    5526, 
    5528, 
    5529, 
    5530, 
    5531, 
    5535, 
    5536, 
    5537, 
    5538, 
    5539, 
    5540, 
    5541, 
    5542, 
    5543, 
    5544, 
    5546, 
    5547, 
    5548, 
    5549, 
    5553, 
    5554, 
    5555, 
    5556, 
    5557, 
    5558, 
    5559, 
    5560, 
    5561, 
    5562, 
    5564, 
    5565, 
    5566, 
    5567, 
    5568, 
    5569, 
    5570, 
    5571, 
    5572, 
    5576, 
    5577, 
    5578, 
    5579, 
    5580, 
    5581, 
    5582, 
    5583, 
    5584, 
    5585, 
    5587, 
    5588, 
    5589, 
    5590, 
    5594, 
    5595, 
    5596, 
    5597, 
    5598, 
    5599, 
    5600, 
    5601, 
    5602, 
    5603, 
    5605, 
    5606, 
    5607, 
    5608, 
    5612, 
    5613, 
    5614, 
    5615, 
    5616, 
    5617, 
    5618, 
    5619, 
    5620, 
    5621, 
    5623, 
    5624, 
    5625, 
    5626, 
    5627, 
    5628, 
    5629, 
    5630, 
    5631, 
    5635, 
    5636, 
    5637, 
    5638, 
    5639, 
    5640, 
    5641, 
    5642, 
    5643, 
    5644, 
    5646, 
    5647, 
    5648, 
    5649, 
    5653, 
    5654, 
    5655, 
    5656, 
    5657, 
    5658, 
    5659, 
    5660, 
    5661, 
    5662, 
    5664, 
    5665, 
    5666, 
    5667, 
    5671, 
    5672, 
    5673, 
    5674, 
    5675, 
    5676, 
    5677, 
    5678, 
    5679, 
    5680, 
    5682, 
    5683, 
    5684, 
    5685, 
    5686, 
    5687, 
    5688, 
    5689, 
    5690, 
    5694, 
    5695, 
    5696, 
    5697, 
    5698, 
    5699, 
    5700, 
    5701, 
    5702, 
    5703, 
    5705, 
    5706, 
    5707, 
    5708, 
    5712, 
    5713, 
    5714, 
    5715, 
    5716, 
    5717, 
    5718, 
    5719, 
    5720, 
    5721, 
    5723, 
    5724, 
    5725, 
    5726, 
    5730, 
    5731, 
    5732, 
    5733, 
    5734, 
    5735, 
    5736, 
    5737, 
    5738, 
    5739, 
    5741, 
    5742, 
    5743, 
    5744, 
    5745, 
    5746, 
    5747, 
    5748, 
    5749, 
    5753, 
    5754, 
    5755, 
    5756, 
    5757, 
    5758, 
    5759, 
    5760, 
    5761, 
    5762, 
    5764, 
    5765, 
    5766, 
    5767, 
    5771, 
    5772, 
    5773, 
    5774, 
    5775, 
    5776, 
    5777, 
    5778, 
    5779, 
    5780, 
    5782, 
    5783, 
    5784, 
    5785, 
    5789, 
    5790, 
    5791, 
    5792, 
    5793, 
    5794, 
    5795, 
    5796, 
    5797, 
    5798, 
    5800, 
    5801, 
    5802, 
    5803, 
    5804, 
    5805, 
    5806, 
    5807, 
    5808, 
    5812, 
    5813, 
    5814, 
    5815, 
    5816, 
    5817, 
    5818, 
    5819, 
    5820, 
    5821, 
    5823, 
    5824, 
    5825, 
    5826, 
    5830, 
    5831, 
    5832, 
    5833, 
    5834, 
    5835, 
    5836, 
    5837, 
    5838, 
    5839, 
    5841, 
    5842, 
    5843, 
    5844, 
    5848, 
    5849, 
    5850, 
    5851, 
    5852, 
    5853, 
    5854, 
    5855, 
    5856, 
    5857, 
    5859, 
    5860, 
    5861, 
    5862, 
    5863, 
    5864, 
    5865, 
    5866, 
    5867, 
    5871, 
    5872, 
    5873, 
    5874, 
    5875, 
    5876, 
    5877, 
    5878, 
    5879, 
    5880, 
    5882, 
    5883, 
    5884, 
    5885, 
    5889, 
    5890, 
    5891, 
    5892, 
    5893, 
    5894, 
    5895, 
    5896, 
    5897, 
    5898, 
    5900, 
    5901, 
    5902, 
    5903, 
    5907, 
    5908, 
    5909, 
    5910, 
    5911, 
    5912, 
    5913, 
    5914, 
    5915, 
    5916, 
    5918, 
    5919, 
    5920, 
    5921, 
    5922, 
    5923, 
    5924, 
    5925, 
    5926, 
    5930, 
    5931, 
    5932, 
    5933, 
    5934, 
    5935, 
    5936, 
    5937, 
    5938, 
    5939, 
    5941, 
    5942, 
    5943, 
    5944, 
    5948, 
    5949, 
    5950, 
    5951, 
    5952, 
    5953, 
    5954, 
    5955, 
    5956, 
    5957, 
    5959, 
    5960, 
    5961, 
    5962, 
    5966, 
    5967, 
    5968, 
    5969, 
    5970, 
    5971, 
    5972, 
    5973, 
    5974, 
    5975, 
    5977, 
    5978, 
    5979, 
    5980, 
    5981, 
    5982, 
    5983, 
    5984, 
    5985, 
    5989, 
    5990, 
    5991, 
    5992, 
    5993, 
    5994, 
    5995, 
    5996, 
    5997, 
    5998, 
    6000, 
    6001, 
    6002, 
    6003, 
    6007, 
    6008, 
    6009, 
    6010, 
    6011, 
    6012, 
    6013, 
    6014, 
    6015, 
    6016, 
    6018, 
    6019, 
    6020, 
    6021, 
    6025, 
    6026, 
    6027, 
    6028, 
    6029, 
    6030, 
    6031, 
    6032, 
    6033, 
    6034, 
    6036, 
    6037, 
    6038, 
    6039, 
    6040, 
    6041, 
    6042, 
    6043, 
    6044, 
    6048, 
    6049, 
    6050, 
    6051, 
    6052, 
    6053, 
    6054, 
    6055, 
    6056, 
    6057, 
    6059, 
    6060, 
    6061, 
    6062, 
    6066, 
    6067, 
    6068, 
    6069, 
    6070, 
    6071, 
    6072, 
    6073, 
    6074, 
    6075, 
    6077, 
    6078, 
    6079, 
    6080, 
    6084, 
    6085, 
    6086, 
    6087, 
    6088, 
    6089, 
    6090, 
    6091, 
    6092, 
    6093, 
    6095, 
    6096, 
    6097, 
    6098, 
    6099, 
    6100, 
    6101, 
    6102, 
    6103, 
    6107, 
    6108, 
    6109, 
    6110, 
    6111, 
    6112, 
    6113, 
    6114, 
    6115, 
    6116, 
    6118, 
    6119, 
    6120, 
    6121, 
    6125, 
    6126, 
    6127, 
    6128, 
    6129, 
    6130, 
    6131, 
    6132, 
    6133, 
    6134, 
    6136, 
    6137, 
    6138, 
    6139, 
    6143, 
    6144, 
    6145, 
    6146, 
    6147, 
    6148, 
    6149, 
    6150, 
    6151, 
    6152, 
    6154, 
    6155, 
    6156, 
    6157, 
    6158, 
    6159, 
    6160, 
    6161, 
    6162, 
    6166, 
    6167, 
    6168, 
    6169, 
    6170, 
    6171, 
    6172, 
    6173, 
    6174, 
    6175, 
    6177, 
    6178, 
    6179, 
    6180, 
    6184, 
    6185, 
    6186, 
    6187, 
    6188, 
    6189, 
    6190, 
    6191, 
    6192, 
    6193, 
    6195, 
    6196, 
    6197, 
    6198, 
    6202, 
    6203, 
    6204, 
    6205, 
    6206, 
    6207, 
    6208, 
    6209, 
    6210, 
    6211, 
    6213, 
    6214, 
    6215, 
    6216, 
    6217, 
    6218, 
    6219, 
    6220, 
    6221, 
    6225, 
    6226, 
    6227, 
    6228, 
    6229, 
    6230, 
    6231, 
    6232, 
    6233, 
    6234, 
    6236, 
    6237, 
    6238, 
    6239, 
    6243, 
    6244, 
    6245, 
    6246, 
    6247, 
    6248, 
    6249, 
    6250, 
    6251, 
    6252, 
    6254, 
    6255, 
    6256, 
    6257, 
    6261, 
    6262, 
    6263, 
    6264, 
    6265, 
    6266, 
    6267, 
    6268, 
    6269, 
    6270, 
    6272, 
    6273, 
    6274, 
    6275, 
    6276, 
    6277, 
    6278, 
    6279, 
    6280, 
    6284, 
    6285, 
    6286, 
    6287, 
    6288, 
    6289, 
    6290, 
    6291, 
    6292, 
    6293, 
    6295, 
    6296, 
    6297, 
    6298, 
    6302, 
    6303, 
    6304, 
    6305, 
    6306, 
    6307, 
    6308, 
    6309, 
    6310, 
    6311, 
    6313, 
    6314, 
    6315, 
    6316, 
    6320, 
    6321, 
    6322, 
    6323, 
    6324, 
    6325, 
    6326, 
    6327, 
    6328, 
    6329, 
    6331, 
    6332, 
    6333, 
    6334, 
    6335, 
    6336, 
    6337, 
    6338, 
    6339, 
    6343, 
    6344, 
    6345, 
    6346, 
    6347, 
    6348, 
    6349, 
    6350, 
    6351, 
    6352, 
    6354, 
    6355, 
    6356, 
    6357, 
    6361, 
    6362, 
    6363, 
    6364, 
    6365, 
    6366, 
    6367, 
    6368, 
    6369, 
    6370, 
    6372, 
    6373, 
    6374, 
    6375, 
    6379, 
    6380, 
    6381, 
    6382, 
    6383, 
    6384, 
    6385, 
    6386, 
    6387, 
    6388, 
    6390, 
    6391, 
    6392, 
    6393, 
    6394, 
    6395, 
    6396, 
    6397, 
    6398, 
    6402, 
    6403, 
    6404, 
    6405, 
    6406, 
    6407, 
    6408, 
    6409, 
    6410, 
    6411, 
    6413, 
    6414, 
    6415, 
    6416, 
    6420, 
    6421, 
    6422, 
    6423, 
    6424, 
    6425, 
    6426, 
    6427, 
    6428, 
    6429, 
    6431, 
    6432, 
    6433, 
    6434, 
    6438, 
    6439, 
    6440, 
    6441, 
    6442, 
    6443, 
    6444, 
    6445, 
    6446, 
    6447, 
    6449, 
    6450, 
    6451, 
    6452, 
    6453, 
    6454, 
    6455, 
    6456, 
    6457, 
    6461, 
    6462, 
    6463, 
    6464, 
    6465, 
    6466, 
    6467, 
    6468, 
    6469, 
    6470, 
    6472, 
    6473, 
    6474, 
    6475, 
    6479, 
    6480, 
    6481, 
    6482, 
    6483, 
    6484, 
    6485, 
    6486, 
    6487, 
    6488, 
    6490, 
    6491, 
    6492, 
    6493, 
    6497, 
    6498, 
    6499, 
    6500, 
    6501, 
    6502, 
    6503, 
    6504, 
    6505, 
    6506, 
    6508, 
    6509, 
    6510, 
    6511, 
    6512, 
    6513, 
    6514, 
    6515, 
    6516, 
    6520, 
    6521, 
    6522, 
    6523, 
    6524, 
    6525, 
    6526, 
    6527, 
    6528, 
    6529, 
    6531, 
    6532, 
    6533, 
    6534, 
    6538, 
    6539, 
    6540, 
    6541, 
    6542, 
    6543, 
    6544, 
    6545, 
    6546, 
    6547, 
    6549, 
    6550, 
    6551, 
    6552, 
    6556, 
    6557, 
    6558, 
    6559, 
    6560, 
    6561, 
    6562, 
    6563, 
    6564, 
    6565, 
    6567, 
    6568, 
    6569, 
    6570, 
    6571, 
    6572, 
    6573, 
    6574, 
    6575, 
    6579, 
    6580, 
    6581, 
    6582, 
    6583, 
    6584, 
    6585, 
    6586, 
    6587, 
    6588, 
    6590, 
    6591, 
    6592, 
    6593, 
    6597, 
    6598, 
    6599, 
    6600, 
    6601, 
    6602, 
    6603, 
    6604, 
    6605, 
    6606, 
    6608, 
    6609, 
    6610, 
    6611, 
    6615, 
    6616, 
    6617, 
    6618, 
    6619, 
    6620, 
    6621, 
    6622, 
    6623, 
    6624, 
    6626, 
    6627, 
    6628, 
    6629, 
    6630, 
    6631, 
    6632, 
    6633, 
    6634, 
    6638, 
    6639, 
    6640, 
    6641, 
    6642, 
    6643, 
    6644, 
    6645, 
    6646, 
    6647, 
    6649, 
    6650, 
    6651, 
    6652, 
    6656, 
    6657, 
    6658, 
    6659, 
    6660, 
    6661, 
    6662, 
    6663, 
    6664, 
    6665, 
    6667, 
    6668, 
    6669, 
    6670, 
    6674, 
    6675, 
    6676, 
    6677, 
    6678, 
    6679, 
    6680, 
    6681, 
    6682, 
    6683, 
    6685, 
    6686, 
    6687, 
    6688, 
    6689, 
    6690, 
    6691, 
    6692, 
    6693, 
    6697, 
    6698, 
    6699, 
    6700, 
    6701, 
    6702, 
    6703, 
    6704, 
    6705, 
    6706, 
    6708, 
    6709, 
    6710, 
    6711, 
    6715, 
    6716, 
    6717, 
    6718, 
    6719, 
    6720, 
    6721, 
    6722, 
    6723, 
    6724, 
    6726, 
    6727, 
    6728, 
    6729, 
    6733, 
    6734, 
    6735, 
    6736, 
    6737, 
    6738, 
    6739, 
    6740, 
    6741, 
    6742, 
    6744, 
    6745, 
    6746, 
    6747, 
    6748, 
    6749, 
    6750, 
    6751, 
    6752, 
    6756, 
    6757, 
    6758, 
    6759, 
    6760, 
    6761, 
    6762, 
    6763, 
    6764, 
    6765, 
    6767, 
    6768, 
    6769, 
    6770, 
    6774, 
    6775, 
    6776, 
    6777, 
    6778, 
    6779, 
    6780, 
    6781, 
    6782, 
    6783, 
    6785, 
    6786, 
    6787, 
    6788, 
    6792, 
    6793, 
    6794, 
    6795, 
    6796, 
    6797, 
    6798, 
    6799, 
    6800, 
    6801, 
    6803, 
    6804, 
    6805, 
    6806, 
    6807, 
    6808, 
    6809, 
    6810, 
    6811, 
    6815, 
    6816, 
    6817, 
    6818, 
    6819, 
    6820, 
    6821, 
    6822, 
    6823, 
    6824, 
    6826, 
    6827, 
    6828, 
    6829, 
    6833, 
    6834, 
    6835, 
    6836, 
    6837, 
    6838, 
    6839, 
    6840, 
    6841, 
    6842, 
    6844, 
    6845, 
    6846, 
    6847, 
    6851, 
    6852, 
    6853, 
    6854, 
    6855, 
    6856, 
    6857, 
    6858, 
    6859, 
    6860, 
    6862, 
    6863, 
    6864, 
    6865, 
    6866, 
    6867, 
    6868, 
    6869, 
    6870, 
    6874, 
    6875, 
    6876, 
    6877, 
    6878, 
    6879, 
    6880, 
    6881, 
    6882, 
    6883, 
    6885, 
    6886, 
    6887, 
    6888, 
    6892, 
    6893, 
    6894, 
    6895, 
    6896, 
    6897, 
    6898, 
    6899, 
    6900, 
    6901, 
    6903, 
    6904, 
    6905, 
    6906, 
    6910, 
    6911, 
    6912, 
    6913, 
    6914, 
    6915, 
    6916, 
    6917, 
    6918, 
    6919, 
    6921, 
    6922, 
    6923, 
    6924, 
    6925, 
    6926, 
    6927, 
    6928, 
    6929, 
    6933, 
    6934, 
    6935, 
    6936, 
    6937, 
    6938, 
    6939, 
    6940, 
    6941, 
    6942, 
    6944, 
    6945, 
    6946, 
    6947, 
    6951, 
    6952, 
    6953, 
    6954, 
    6955, 
    6956, 
    6957, 
    6958, 
    6959, 
    6960, 
    6962, 
    6963, 
    6964, 
    6965, 
    6969, 
    6970, 
    6971, 
    6972, 
    6973, 
    6974, 
    6975, 
    6976, 
    6977, 
    6978, 
    6980, 
    6981, 
    6982, 
    6983, 
    6984, 
    6985, 
    6986, 
    6987, 
    6988, 
    6992, 
    6993, 
    6994, 
    6995, 
    6996, 
    6997, 
    6998, 
    6999, 
    7000, 
    7001, 
    7003, 
    7004, 
    7005, 
    7006, 
    7010, 
    7011, 
    7012, 
    7013, 
    7014, 
    7015, 
    7016, 
    7017, 
    7018, 
    7019, 
    7021, 
    7022, 
    7023, 
    7024, 
    7028, 
    7029, 
    7030, 
    7031, 
    7032, 
    7033, 
    7034, 
    7035, 
    7036, 
    7037, 
    7039, 
    7040, 
    7041, 
    7042, 
    7043, 
    7044, 
    7045, 
    7046, 
    7047, 
    7051, 
    7052, 
    7053, 
    7054, 
    7055, 
    7056, 
    7057, 
    7058, 
    7059, 
    7060, 
    7062, 
    7063, 
    7064, 
    7065, 
    7069, 
    7070, 
    7071, 
    7072, 
    7073, 
    7074, 
    7075, 
    7076, 
    7077, 
    7078, 
    7080, 
    7081, 
    7082, 
    7083, 
    7087, 
    7088, 
    7089, 
    7090, 
    7091, 
    7092, 
    7093, 
    7094, 
    7095, 
    7096, 
    7098, 
    7099, 
    7100, 
    7101, 
    7102, 
    7103, 
    7104, 
    7105, 
    7106, 
    7110, 
    7111, 
    7112, 
    7113, 
    7114, 
    7115, 
    7116, 
    7117, 
    7118, 
    7119, 
    7121, 
    7122, 
    7123, 
    7124, 
    7128, 
    7129, 
    7130, 
    7131, 
    7132, 
    7133, 
    7134, 
    7135, 
    7136, 
    7137, 
    7139, 
    7140, 
    7141, 
    7142, 
    7146, 
    7147, 
    7148, 
    7149, 
    7150, 
    7151, 
    7152, 
    7153, 
    7154, 
    7155, 
    7157, 
    7158, 
    7159, 
    7160, 
    7161, 
    7162, 
    7163, 
    7164, 
    7165, 
    7169, 
    7170, 
    7171, 
    7172, 
    7173, 
    7174, 
    7175, 
    7176, 
    7177, 
    7178, 
    7180, 
    7181, 
    7182, 
    7183, 
    7187, 
    7188, 
    7189, 
    7190, 
    7191, 
    7192, 
    7193, 
    7194, 
    7195, 
    7196, 
    7198, 
    7199, 
    7200, 
    7201, 
    7205, 
    7206, 
    7207, 
    7208, 
    7209, 
    7210, 
    7211, 
    7212, 
    7213, 
    7214, 
    7216, 
    7217, 
    7218, 
    7219, 
    7220, 
    7221, 
    7222, 
    7223, 
    7224, 
    7228, 
    7229, 
    7230, 
    7231, 
    7232, 
    7233, 
    7234, 
    7235, 
    7236, 
    7237, 
    7239, 
    7240, 
    7241, 
    7242, 
    7246, 
    7247, 
    7248, 
    7249, 
    7250, 
    7251, 
    7252, 
    7253, 
    7254, 
    7255, 
    7257, 
    7258, 
    7259, 
    7260, 
    7264, 
    7265, 
    7266, 
    7267, 
    7268, 
    7269, 
    7270, 
    7271, 
    7272, 
    7273, 
    7275, 
    7276, 
    7277, 
    7278, 
    7279, 
    7280, 
    7281, 
    7282, 
    7283, 
    7287, 
    7288, 
    7289, 
    7290, 
    7291, 
    7292, 
    7293, 
    7294, 
    7295, 
    7296, 
    7298, 
    7299, 
    7300, 
    7301, 
    7305, 
    7306, 
    7307, 
    7308, 
    7309, 
    7310, 
    7311, 
    7312, 
    7313, 
    7314, 
    7316, 
    7317, 
    7318, 
    7319, 
    7323, 
    7324, 
    7325, 
    7326, 
    7327, 
    7328, 
    7329, 
    7330, 
    7331, 
    7332, 
    7334, 
    7335, 
    7336, 
    7337, 
    7338, 
    7339, 
    7340, 
    7341, 
    7342, 
    7346, 
    7347, 
    7348, 
    7349, 
    7350, 
    7351, 
    7352, 
    7353, 
    7354, 
    7355, 
    7357, 
    7358, 
    7359, 
    7360, 
    7364, 
    7365, 
    7366, 
    7367, 
    7368, 
    7369, 
    7370, 
    7371, 
    7372, 
    7373, 
    7375, 
    7376, 
    7377, 
    7378, 
    7382, 
    7383, 
    7384, 
    7385, 
    7386, 
    7387, 
    7388, 
    7389, 
    7390, 
    7391, 
    7393, 
    7394, 
    7395, 
    7396, 
    7397, 
    7398, 
    7399, 
    7400, 
    7401, 
    7405, 
    7406, 
    7407, 
    7408, 
    7409, 
    7410, 
    7411, 
    7412, 
    7413, 
    7414, 
    7416, 
    7417, 
    7418, 
    7419, 
    7423, 
    7424, 
    7425, 
    7426, 
    7427, 
    7428, 
    7429, 
    7430, 
    7431, 
    7432, 
    7434, 
    7435, 
    7436, 
    7437, 
    7441, 
    7442, 
    7443, 
    7444, 
    7445, 
    7446, 
    7447, 
    7448, 
    7449, 
    7450, 
    7452, 
    7453, 
    7454, 
    7455, 
    7456, 
    7457, 
    7458, 
    7459, 
    7460, 
    7464, 
    7465, 
    7466, 
    7467, 
    7468, 
    7469, 
    7470, 
    7471, 
    7472, 
    7473, 
    7475, 
    7476, 
    7477, 
    7478, 
    7482, 
    7483, 
    7484, 
    7485, 
    7486, 
    7487, 
    7488, 
    7489, 
    7490, 
    7491, 
    7493, 
    7494, 
    7495, 
    7496, 
    7500, 
    7501, 
    7502, 
    7503, 
    7504, 
    7505, 
    7506, 
    7507, 
    7508, 
    7509, 
    7511, 
    7512, 
    7513, 
    7514, 
    7515, 
    7516, 
    7517, 
    7518, 
    7519, 
    7523, 
    7524, 
    7525, 
    7526, 
    7527, 
    7528, 
    7529, 
    7530, 
    7531, 
    7532, 
    7534, 
    7535, 
    7536, 
    7537, 
    7541, 
    7542, 
    7543, 
    7544, 
    7545, 
    7546, 
    7547, 
    7548, 
    7549, 
    7550, 
    7552, 
    7553, 
    7554, 
    7555, 
    7559, 
    7560, 
    7561, 
    7562, 
    7563, 
    7564, 
    7565, 
    7566, 
    7567, 
    7568, 
    7570, 
    7571, 
    7572, 
    7573, 
    7574, 
    7575, 
    7576, 
    7577, 
    7578, 
    7582, 
    7583, 
    7584, 
    7585, 
    7586, 
    7587, 
    7588, 
    7589, 
    7590, 
    7591, 
    7593, 
    7594, 
    7595, 
    7596, 
    7600, 
    7601, 
    7602, 
    7603, 
    7604, 
    7605, 
    7606, 
    7607, 
    7608, 
    7609, 
    7611, 
    7612, 
    7613, 
    7614, 
    7618, 
    7619, 
    7620, 
    7621, 
    7622, 
    7623, 
    7624, 
    7625, 
    7626, 
    7627, 
    7629, 
    7630, 
    7631, 
    7632, 
    7633, 
    7634, 
    7635, 
    7636, 
    7637, 
    7641, 
    7642, 
    7643, 
    7644, 
    7645, 
    7646, 
    7647, 
    7648, 
    7649, 
    7650, 
    7652, 
    7653, 
    7654, 
    7655, 
    7659, 
    7660, 
    7661, 
    7662, 
    7663, 
    7664, 
    7665, 
    7666, 
    7667, 
    7668, 
    7670, 
    7671, 
    7672, 
    7673, 
    7677, 
    7678, 
    7679, 
    7680, 
    7681, 
    7682, 
    7683, 
    7684, 
    7685, 
    7686, 
    7688, 
    7689, 
    7690, 
    7691, 
    7692, 
    7693, 
    7694, 
    7695, 
    7696, 
    7700, 
    7701, 
    7702, 
    7703, 
    7704, 
    7705, 
    7706, 
    7707, 
    7708, 
    7709, 
    7711, 
    7712, 
    7713, 
    7714, 
    7718, 
    7719, 
    7720, 
    7721, 
    7722, 
    7723, 
    7724, 
    7725, 
    7726, 
    7727, 
    7729, 
    7730, 
    7731, 
    7732, 
    7736, 
    7737, 
    7738, 
    7739, 
    7740, 
    7741, 
    7742, 
    7743, 
    7744, 
    7745, 
    7747, 
    7748, 
    7749, 
    7750, 
    7751, 
    7752, 
    7753, 
    7754, 
    7755, 
    7759, 
    7760, 
    7761, 
    7762, 
    7763, 
    7764, 
    7765, 
    7766, 
    7767, 
    7768, 
    7770, 
    7771, 
    7772, 
    7773, 
    7777, 
    7778, 
    7779, 
    7780, 
    7781, 
    7782, 
    7783, 
    7784, 
    7785, 
    7786, 
    7788, 
    7789, 
    7790, 
    7791, 
    7795, 
    7796, 
    7797, 
    7798, 
    7799, 
    7800, 
    7801, 
    7802, 
    7803, 
    7804, 
    7806, 
    7807, 
    7808, 
    7809, 
    7810, 
    7811, 
    7812, 
    7813, 
    7814, 
    7818, 
    7819, 
    7820, 
    7821, 
    7822, 
    7823, 
    7824, 
    7825, 
    7826, 
    7827, 
    7829, 
    7830, 
    7831, 
    7832, 
    7836, 
    7837, 
    7838, 
    7839, 
    7840, 
    7841, 
    7842, 
    7843, 
    7844, 
    7845, 
    7847, 
    7848, 
    7849, 
    7850, 
    7854, 
    7855, 
    7856, 
    7857, 
    7858, 
    7859, 
    7860, 
    7861, 
    7862, 
    7863, 
    7865, 
    7866, 
    7867, 
    7868, 
    7869, 
    7870, 
    7871, 
    7872, 
    7873, 
    7877, 
    7878, 
    7879, 
    7880, 
    7881, 
    7882, 
    7883, 
    7884, 
    7885, 
    7886, 
    7888, 
    7889, 
    7890, 
    7891, 
    7895, 
    7896, 
    7897, 
    7898, 
    7899, 
    7900, 
    7901, 
    7902, 
    7903, 
    7904, 
    7906, 
    7907, 
    7908, 
    7909, 
    7913, 
    7914, 
    7915, 
    7916, 
    7917, 
    7918, 
    7919, 
    7920, 
    7921, 
    7922, 
    7924, 
    7925, 
    7926, 
    7927, 
    7928, 
    7929, 
    7930, 
    7931, 
    7932, 
    7936, 
    7937, 
    7938, 
    7939, 
    7940, 
    7941, 
    7942, 
    7943, 
    7944, 
    7945, 
    7947, 
    7948, 
    7949, 
    7950, 
    7954, 
    7955, 
    7956, 
    7957, 
    7958, 
    7959, 
    7960, 
    7961, 
    7962, 
    7963, 
    7965, 
    7966, 
    7967, 
    7968, 
    7972, 
    7973, 
    7974, 
    7975, 
    7976, 
    7977, 
    7978, 
    7979, 
    7980, 
    7981, 
    7983, 
    7984, 
    7985, 
    7986, 
    7987, 
    7988, 
    7989, 
    7990, 
    7991, 
    7995, 
    7996, 
    7997, 
    7998, 
    7999, 
    8000, 
    8001, 
    8002, 
    8003, 
    8004, 
    8006, 
    8007, 
    8008, 
    8009, 
    8013, 
    8014, 
    8015, 
    8016, 
    8017, 
    8018, 
    8019, 
    8020, 
    8021, 
    8022, 
    8024, 
    8025, 
    8026, 
    8027, 
    8031, 
    8032, 
    8033, 
    8034, 
    8035, 
    8036, 
    8037, 
    8038, 
    8039, 
    8040, 
    8042, 
    8043, 
    8044, 
    8045, 
    8046, 
    8047, 
    8048, 
    8049, 
    8050, 
    8054, 
    8055, 
    8056, 
    8057, 
    8058, 
    8059, 
    8060, 
    8061, 
    8062, 
    8063, 
    8065, 
    8066, 
    8067, 
    8068, 
    8072, 
    8073, 
    8074, 
    8075, 
    8076, 
    8077, 
    8078, 
    8079, 
    8080, 
    8081, 
    8083, 
    8084, 
    8085, 
    8086, 
    8090, 
    8091, 
    8092, 
    8093, 
    8094, 
    8095, 
    8096, 
    8097, 
    8098, 
    8099, 
    8101, 
    8102, 
    8103, 
    8104, 
    8105, 
    8106, 
    8107, 
    8108, 
    8109, 
    8113, 
    8114, 
    8115, 
    8116, 
    8117, 
    8118, 
    8119, 
    8120, 
    8121, 
    8122, 
    8124, 
    8125, 
    8126, 
    8127, 
    8131, 
    8132, 
    8133, 
    8134, 
    8135, 
    8136, 
    8137, 
    8138, 
    8139, 
    8140, 
    8142, 
    8143, 
    8144, 
    8145, 
    8149, 
    8150, 
    8151, 
    8152, 
    8153, 
    8154, 
    8155, 
    8156, 
    8157, 
    8158, 
    8160, 
    8161, 
    8162, 
    8163, 
    8164, 
    8165, 
    8166, 
    8167, 
    8168, 
    8172, 
    8173, 
    8174, 
    8175, 
    8176, 
    8177, 
    8178, 
    8179, 
    8180, 
    8181, 
    8183, 
    8184, 
    8185, 
    8186, 
    8190, 
    8191, 
    8192, 
    8193, 
    8194, 
    8195, 
    8196, 
    8197, 
    8198, 
    8199, 
    8201, 
    8202, 
    8203, 
    8204, 
    8208, 
    8209, 
    8210, 
    8211, 
    8212, 
    8213, 
    8214, 
    8215, 
    8216, 
    8217, 
    8219, 
    8220, 
    8221, 
    8222, 
    8223, 
    8224, 
    8225, 
    8226, 
    8227, 
    8231, 
    8232, 
    8233, 
    8234, 
    8235, 
    8236, 
    8237, 
    8238, 
    8239, 
    8240, 
    8242, 
    8243, 
    8244, 
    8245, 
    8249, 
    8250, 
    8251, 
    8252, 
    8253, 
    8254, 
    8255, 
    8256, 
    8257, 
    8258, 
    8260, 
    8261, 
    8262, 
    8263, 
    8267, 
    8268, 
    8269, 
    8270, 
    8271, 
    8272, 
    8273, 
    8274, 
    8275, 
    8276, 
    8278, 
    8279, 
    8280, 
    8281, 
    8282, 
    8283, 
    8284, 
    8285, 
    8286, 
    8290, 
    8291, 
    8292, 
    8293, 
    8294, 
    8295, 
    8296, 
    8297, 
    8298, 
    8299, 
    8301, 
    8302, 
    8303, 
    8304, 
    8308, 
    8309, 
    8310, 
    8311, 
    8312, 
    8313, 
    8314, 
    8315, 
    8316, 
    8317, 
    8319, 
    8320, 
    8321, 
    8322, 
    8326, 
    8327, 
    8328, 
    8329, 
    8330, 
    8331, 
    8332, 
    8333, 
    8334, 
    8335, 
    8337, 
    8338, 
    8339, 
    8340, 
    8341, 
    8342, 
    8343, 
    8344, 
    8345, 
    8349, 
    8350, 
    8351, 
    8352, 
    8353, 
    8354, 
    8355, 
    8356, 
    8357, 
    8358, 
    8360, 
    8361, 
    8362, 
    8363, 
    8367, 
    8368, 
    8369, 
    8370, 
    8371, 
    8372, 
    8373, 
    8374, 
    8375, 
    8376, 
    8378, 
    8379, 
    8380, 
    8381, 
    8385, 
    8386, 
    8387, 
    8388, 
    8389, 
    8390, 
    8391, 
    8392, 
    8393, 
    8394, 
    8396, 
    8397, 
    8398, 
    8399, 
    8400, 
    8401, 
    8402, 
    8403, 
    8404, 
    8408, 
    8409, 
    8410, 
    8411, 
    8412, 
    8413, 
    8414, 
    8415, 
    8416, 
    8417, 
    8419, 
    8420, 
    8421, 
    8422, 
    8426, 
    8427, 
    8428, 
    8429, 
    8430, 
    8431, 
    8432, 
    8433, 
    8434, 
    8435, 
    8437, 
    8438, 
    8439, 
    8440, 
    8444, 
    8445, 
    8446, 
    8447, 
    8448, 
    8449, 
    8450, 
    8451, 
    8452, 
    8453, 
    8455, 
    8456, 
    8457, 
    8458, 
    8459, 
    8460, 
    8461, 
    8462, 
    8463, 
    8467, 
    8468, 
    8469, 
    8470, 
    8471, 
    8472, 
    8473, 
    8474, 
    8475, 
    8476, 
    8478, 
    8479, 
    8480, 
    8481, 
    8485, 
    8486, 
    8487, 
    8488, 
    8489, 
    8490, 
    8491, 
    8492, 
    8493, 
    8494, 
    8496, 
    8497, 
    8498, 
    8499, 
    8503, 
    8504, 
    8505, 
    8506, 
    8507, 
    8508, 
    8509, 
    8510, 
    8511, 
    8512, 
    8514, 
    8515, 
    8516, 
    8517, 
    8518, 
    8519, 
    8520, 
    8521, 
    8522, 
    8526, 
    8527, 
    8528, 
    8529, 
    8530, 
    8531, 
    8532, 
    8533, 
    8534, 
    8535, 
    8537, 
    8538, 
    8539, 
    8540, 
    8544, 
    8545, 
    8546, 
    8547, 
    8548, 
    8549, 
    8550, 
    8551, 
    8552, 
    8553, 
    8555, 
    8556, 
    8557, 
    8558, 
    8562, 
    8563, 
    8564, 
    8565, 
    8566, 
    8567, 
    8568, 
    8569, 
    8570, 
    8571, 
    8573, 
    8574, 
    8575, 
    8576, 
    8577, 
    8578, 
    8579, 
    8580, 
    8581, 
    8585, 
    8586, 
    8587, 
    8588, 
    8589, 
    8590, 
    8591, 
    8592, 
    8593, 
    8594, 
    8596, 
    8597, 
    8598, 
    8599, 
    8603, 
    8604, 
    8605, 
    8606, 
    8607, 
    8608, 
    8609, 
    8610, 
    8611, 
    8612, 
    8614, 
    8615, 
    8616, 
    8617, 
    8621, 
    8622, 
    8623, 
    8624, 
    8625, 
    8626, 
    8627, 
    8628, 
    8629, 
    8630, 
    8632, 
    8633, 
    8634, 
    8635, 
    8636, 
    8637, 
    8638, 
    8639, 
    8640, 
    8644, 
    8645, 
    8646, 
    8647, 
    8648, 
    8649, 
    8650, 
    8651, 
    8652, 
    8653, 
    8655, 
    8656, 
    8657, 
    8658, 
    8662, 
    8663, 
    8664, 
    8665, 
    8666, 
    8667, 
    8668, 
    8669, 
    8670, 
    8671, 
    8673, 
    8674, 
    8675, 
    8676, 
    8680, 
    8681, 
    8682, 
    8683, 
    8684, 
    8685, 
    8686, 
    8687, 
    8688, 
    8689, 
    8691, 
    8692, 
    8693, 
    8694, 
    8695, 
    8696, 
    8697, 
    8698, 
    8699, 
    8703, 
    8704, 
    8705, 
    8706, 
    8707, 
    8708, 
    8709, 
    8710, 
    8711, 
    8712, 
    8714, 
    8715, 
    8716, 
    8717, 
    8721, 
    8722, 
    8723, 
    8724, 
    8725, 
    8726, 
    8727, 
    8728, 
    8729, 
    8730, 
    8732, 
    8733, 
    8734, 
    8735, 
    8739, 
    8740, 
    8741, 
    8742, 
    8743, 
    8744, 
    8745, 
    8746, 
    8747, 
    8748, 
    8750, 
    8751, 
    8752, 
    8753, 
    8754, 
    8755, 
    8756, 
    8757, 
    8758, 
    8762, 
    8763, 
    8764, 
    8765, 
    8766, 
    8767, 
    8768, 
    8769, 
    8770, 
    8771, 
    8773, 
    8774, 
    8775, 
    8776, 
    8780, 
    8781, 
    8782, 
    8783, 
    8784, 
    8785, 
    8786, 
    8787, 
    8788, 
    8789, 
    8791, 
    8792, 
    8793, 
    8794, 
    8798, 
    8799, 
    8800, 
    8801, 
    8802, 
    8803, 
    8804, 
    8805, 
    8806, 
    8807, 
    8809, 
    8810, 
    8811, 
    8812, 
    8813, 
    8814, 
    8815, 
    8816, 
    8817, 
    8821, 
    8822, 
    8823, 
    8824, 
    8825, 
    8826, 
    8827, 
    8828, 
    8829, 
    8830, 
    8832, 
    8833, 
    8834, 
    8835, 
    8839, 
    8840, 
    8841, 
    8842, 
    8843, 
    8844, 
    8845, 
    8846, 
    8847, 
    8848, 
    8850, 
    8851, 
    8852, 
    8853, 
    8857, 
    8858, 
    8859, 
    8860, 
    8861, 
    8862, 
    8863, 
    8864, 
    8865, 
    8866, 
    8868, 
    8869, 
    8870, 
    8871, 
    8872, 
    8873, 
    8874, 
    8875, 
    8876, 
    8880, 
    8881, 
    8882, 
    8883, 
    8884, 
    8885, 
    8886, 
    8887, 
    8888, 
    8889, 
    8891, 
    8892, 
    8893, 
    8894, 
    8898, 
    8899, 
    8900, 
    8901, 
    8902, 
    8903, 
    8904, 
    8905, 
    8906, 
    8907, 
    8909, 
    8910, 
    8911, 
    8912, 
    8916, 
    8917, 
    8918, 
    8919, 
    8920, 
    8921, 
    8922, 
    8923, 
    8924, 
    8925, 
    8927, 
    8928, 
    8929, 
    8930
  ], 
  "heads": [
    [67, 0, 0], 
    [114, 0, 0], 
    [161, 0, 0], 
    [208, 0, 0], 
    [255, 0, 0], 
    [302, 0, 0], 
    [349, 0, 0], 
    [396, 0, 0], 
    [443, 0, 0], 
    [490, 0, 0], 
    [537, 0, 0], 
    [584, 0, 0], 
    [631, 0, 0], 
    [678, 0, 0], 
    [725, 0, 0], 
    [772, 0, 0], 
    [819, 0, 0], 
    [866, 0, 0], 
    [913, 0, 0], 
    [960, 0, 0], 
    [1007, 0, 0], 
    [1054, 0, 0], 
    [1101, 0, 0], 
    [1148, 0, 0], 
    [1195, 0, 0], 
    [1242, 0, 0], 
    [1289, 0, 0], 
    [1336, 0, 0], 
    [1383, 0, 0], 
    [1430, 0, 0], 
    [1477, 0, 0], 
    [1524, 0, 0], 
    [1571, 0, 0], 
    [1618, 0, 0], 
    [1665, 0, 0], 
    [1712, 0, 0], 
    [1759, 0, 0], 
    [1806, 0, 0], 
    [1853, 0, 0], 
    [1900, 0, 0], 
    [1947, 0, 0], 
    [1994, 0, 0], 
    [2041, 0, 0], 
    [2088, 0, 0], 
    [2135, 0, 0], 
    [2182, 0, 0], 
    [2229, 0, 0], 
    [2276, 0, 0], 
    [2323, 0, 0], 
    [2370, 0, 0], 
    [2417, 0, 0], 
    [2464, 0, 0], 
    [2511, 0, 0], 
    [2558, 0, 0], 
    [2605, 0, 0], 
    [2652, 0, 0], 
    [2699, 0, 0], 
    [2746, 0, 0], 
    [2793, 0, 0], 
    [2840, 0, 0], 
    [2887, 0, 0], 
    [2934, 0, 0], 
    [2981, 0, 0], 
    [3028, 0, 0], 
    [3075, 0, 0], 
    [3122, 0, 0], 
    [3169, 0, 0], 
    [3216, 0, 0], 
    [3263, 0, 0], 
    [3310, 0, 0], 
    [3357, 0, 0], 
    [3404, 0, 0], 
    [3451, 0, 0], 
    [3498, 0, 0], 
    [3545, 0, 0], 
    [3592, 0, 0], 
    [3639, 0, 0], 
    [3686, 0, 0], 
    [3733, 0, 0], 
    [3780, 0, 0], 
    [3827, 0, 0], 
    [3874, 0, 0], 
    [3921, 0, 0], 
    [3968, 0, 0], 
    [4015, 0, 0], 
    [4062, 0, 0], 
    [4109, 0, 0], 
    [4156, 0, 0], 
    [4203, 0, 0], 
    [4250, 0, 0], 
    [4297, 0, 0], 
    [4344, 0, 0], 
    [4391, 0, 0], 
    [4438, 0, 0], 
    [4485, 0, 0], 
    [4532, 0, 0], 
    [4579, 0, 0], 
    [4626, 0, 0], 
    [4673, 0, 0], 
    [4720, 0, 0], 
    [4767, 0, 0], 
    [4814, 0, 0], 
    [4861, 0, 0], 
    [4908, 0, 0], 
    [4955, 0, 0], 
    [5002, 0, 0], 
    [5049, 0, 0], 
    [5096, 0, 0], 
    [5143, 0, 0], 
    [5190, 0, 0], 
    [5237, 0, 0], 
    [5284, 0, 0], 
    [5331, 0, 0], 
    [5378, 0, 0], 
    [5425, 0, 0], 
    [5472, 0, 0], 
    [5519, 0, 0], 
    [5566, 0, 0], 
    [5613, 0, 0], 
    [5660, 0, 0], 
    [5707, 0, 0], 
    [5754, 0, 0], 
    [5801, 0, 0], 
    [5848, 0, 0], 
    [5895, 0, 0], 
    [5942, 0, 0], 
    [5989, 0, 0], 
    [6036, 0, 0], 
    [6083, 0, 0], 
    [6130, 0, 0], 
    [6177, 0, 0], 
    [6224, 0, 0], 
    [6271, 0, 0], 
    [6318, 0, 0], 
    [6365, 0, 0], 
    [6412, 0, 0], 
    [6459, 0, 0], 
    [6506, 0, 0], 
    [6553, 0, 0], 
    [6600, 0, 0], 
    [6647, 0, 0], 
    [6694, 0, 0], 
    [6741, 0, 0], 
    [6788, 0, 0], 
    [6835, 0, 0], 
    [6882, 0, 0], 
    [6929, 0, 0], 
    [6976, 0, 0], 
    [7023, 0, 0], 
    [7070, 0, 0], 
    [7117, 0, 0]
  ], 
  "attrs": {"mxnet_version": ["int", 904]}
}